deep_learning/training_checkpoints/20190920-103129_200.pth (torch_old, 255324 bytes, 21 tensors)

block1.weight f4 [100, 6]
000000 8b 99 f0 84 2e dc f1 84 e9 2e f3 04 cd fe f4 84
       -5.6564736e-36 -5.686103e-36 5.7172106e-36 -5.7598122e-36
000010 d6 6e f0 84 93 28 f3 04 71 7f 34 3e fb 5e 82 bf
       -5.6525516e-36 5.7166287e-36 0.1762674 -1.0185236
000020 8b e8 2e 3e 36 62 c6 3c b2 0e bf bd 0b fc b9 3e
       0.17080896 0.024216752 -0.09328975 0.36325106
000030 c6 3c 0f 3e 8b f4 20 bf 17 72 b7 3e 94 d5 ce 3d
       0.13988027 -0.6287314 0.3582923 0.100993305
000040 35 bd 42 ba e4 da 51 3e 2f 3e cd 3e c2 e1 7c bf
       -0.0007428707 0.20493656 0.40086505 -0.9878198
000050 48 88 21 3e 6f 8d 55 3e 26 3a 0a 3e 94 33 46 be
       0.15774643 0.20854734 0.13498744 -0.19355613
000060 c3 00 e6 3b 83 4e 3e bf 3a 2f 03 be 19 c4 14 be
       0.007019134 -0.7433855 -0.12810984 -0.1452793
000070 b1 93 a9 3e 29 d6 0e be e6 6c bf ba 46 1e e3 3d
       0.33120492 -0.13948883 -0.0014604598 0.110897586
000080 cc 56 09 bc ad 17 09 3e c2 52 0b 3d 54 03 4d bc
       -0.00838251 0.13387938 0.03401447 -0.0125130005
000090 48 19 44 3e 08 19 72 bf 84 b8 47 3e 5f 82 cc 3e
       0.19150269 -0.94569445 0.19503981 0.39943215
0000a0 9e ac ea 3e 87 6e 6e 3e 65 47 27 3e 01 41 27 bf
       0.4583482 0.2328435 0.16335829 -0.65333563
0000b0 cc 62 3f be 8e fe fc bd 63 a9 4e 3c ba fc a1 be
       -0.18690032 -0.1235324 0.012613627 -0.31638128
0000c0 9c fa 21 39 1b 15 99 bf b1 7e f5 bd 54 3d da 3e
       0.00015447516 -1.1959566 -0.11987055 0.42624915
0000d0 eb 1e c5 3e 5a ef 24 3e 25 a9 80 39 ca e0 b4 bf
       0.3850015 0.1610693 0.00024540085 -1.41311
0000e0 5e 26 6c 3d ef 63 88 bb fc 30 08 3f 7d 94 5e 3e
       0.057653777 -0.0041623036 0.53199744 0.21736331
0000f0 83 26 8d 3e 65 13 62 bf e6 08 7e 3e 68 f0 ac 3e
       0.27568445 -0.88310844 0.24808082 0.33777165
000100 b4 3c ea 3e 9f 5d ad 3e 00 1b 40 3e 8e 1c af bf
       0.45749438 0.3386049 0.187603 -1.3680589
000110 d3 0f 8a 3e 44 74 b5 3e c1 93 79 3e 90 1a 02 3d
       0.26965198 0.35440266 0.2437277 0.031763613
000120 98 8c 7b 3b 9d c4 38 bd 2a 21 8d bd 3d d1 94 3d
       0.003838336 -0.04510938 -0.06891091 0.072664715
000130 a6 e9 e5 3d f6 46 cf 3d fa 46 49 3e 67 14 7c 3f
       0.112262055 0.101209566 0.19655982 0.9846863
000140 c0 57 b7 be 27 63 b5 be 55 fb 79 3e 98 cc b2 3e
       -0.35809135 -0.3542721 0.24412282 0.34921718
000150 da 8d 87 3d 38 22 26 3f 38 e1 30 be bd 7e 1a 3e
       0.06618853 0.64895964 -0.17273414 0.1508741
000160 68 c2 5c 3d fc f5 ae 3d c7 e8 74 3e 42 00 6c 3f
       0.053896338 0.085430115 0.23916923 0.92187893
000170 4d 77 03 3e b5 31 96 3e ff 22 90 3e 37 f9 12 3e
       0.12838478 0.29334798 0.281517 0.1435288
000180 58 23 c2 3d ab 46 6c bf 56 d9 2a 3d 83 a7 5b bc
       0.094793975 -0.9229533 0.041711174 -0.013406637
000190 cc f6 fe bc 2d aa be 3e 95 42 aa 3e 5b f1 a5 3f
       -0.031123541 0.3723921 0.33253923 1.2964281
0001a0 9f 6f dc 3d a5 62 7c 3e 32 8b eb bd c5 5f 75 3d
       0.107634775 0.24647005 -0.11501159 0.059905786
0001b0 0d 4b 6e 38 15 cc 9b 3f 28 95 c9 bd 2b 4c 30 be
       5.681352e-05 1.2171656 -0.098429024 -0.17216556
0001c0 f2 8f 85 be 46 6d 1b be 76 ec 78 3e 42 34 46 3f
       -0.26086384 -0.15178403 0.24308953 0.7742349
0001d0 39 fd 1f be 46 9b 24 3d 00 da 1b be b9 05 79 be
       -0.1562394 0.040187143 -0.15219879 -0.2431859
0001e0 84 e3 b6 3c a7 6f 86 3f a7 95 02 be db b3 1f 3c
       0.022325285 1.0502824 -0.127524 0.009747471
0001f0 be 6b 05 bf b5 93 4f bd 05 c2 43 3c e6 53 b8 be
       -0.52117527 -0.050677974 0.011948113 -0.3600151
000200 84 c1 93 bd d4 87 11 3e 0a 8d 33 3e c6 cf af 3d
       -0.072146446 0.1421197 0.17534271 0.085845515
000210 a3 c9 f1 84 c7 87 f0 84 0c 26 f2 04 61 4e f3 04
       -5.6844e-36 -5.654842e-36 5.6928867e-36 5.7201005e-36
000220 5c 8a f3 84 b8 9a f0 84 8c cf e1 37 9d 79 e0 bd
       -5.725609e-36 -5.6565816e-36 2.6918737e-05 -0.10960696
000230 7d 29 72 bd c7 6a 16 bd 69 e3 81 3e 3e b2 d3 3d
       -0.059121598 -0.036722925 0.25368813 0.103367314
000240 14 09 cb 3d 04 fe 0b 3f 04 6e ae 3d b9 c2 bd be
       0.09913841 0.5468447 0.085170776 -0.37062624
000250 51 13 8d be 11 7e 8c be 49 05 92 3e 55 be 8d bf
       -0.275538 -0.2743993 0.28519657 -1.107371
000260 d2 85 9d bc 06 c3 88 3e 31 18 d3 3d 61 86 cb 3d
       -0.01922885 0.2671129 0.103073485 0.0993774
000270 d9 14 f3 84 1d a1 f2 84 13 52 f4 84 57 fc f0 84
       -5.714817e-36 -5.7041886e-36 -5.7439498e-36 -5.6655466e-36
000280 c8 fb f1 84 f1 20 f5 84 4d 0a d7 3c b1 12 2c bf
       -5.6890052e-36 -5.7629475e-36 0.026250029 -0.6721602
000290 6b 2c 81 be a9 d5 a9 be 18 38 b7 3e 6c d8 e5 bd
       -0.252292 -0.33170822 0.35784984 -0.1122292
0002a0 cd 67 08 bc c4 2e 67 3b 28 1d 32 b8 89 ba 97 3b
       -0.008325529 0.0035275677 -4.246566e-05 0.004630391
0002b0 ee 1e 57 3c 50 e5 f6 39 09 0b f0 84 34 9c f2 84
       0.013129933 0.00047091627 -5.6433863e-36 -5.7037376e-36
0002c0 44 48 f4 04 9d ac ef 84 6d 66 f1 84 5d 01 f3 84
       5.743049e-36 -5.634715e-36 -5.675289e-36 -5.7130277e-36
0002d0 47 50 58 3e c4 ed 28 3f e3 94 17 bd e2 8f ef be
       0.21124373 0.659878 -0.037007224 -0.4678946
0002e0 ca 34 35 bd 95 5b a3 be 6d 58 ce 3e e3 75 1e 3f
       -0.044239797 -0.3190581 0.4030184 0.6189863
0002f0 eb fa ae be 22 20 96 3e 93 5f a1 be 22 cf d3 bd
       -0.3417581 0.2932139 -0.3151823 -0.10342242
000300 a0 ed ca 3e 23 30 a7 be b2 a8 20 3e 83 bd 50 3d
       0.39634418 -0.32653913 0.15689352 0.050961982
000310 4c 22 56 be 4d 4c 8a bd be 20 b1 3d a3 e5 a7 3f
       -0.2091152 -0.067528345 0.08648823 1.3116955
000320 08 0d 98 3e cf 39 8c be 53 10 42 be e5 1b 29 3e
       0.29697442 -0.27387854 -0.1895154 0.16514547
000330 73 c5 f4 84 28 a2 f0 04 1e f2 f3 04 7f f9 f1 84
       -5.7545453e-36 5.6572646e-36 5.7351375e-36 -5.6887954e-36
000340 8c 6f f3 84 0f 3b f4 84 b1 51 29 38 45 df 4a bf
       -5.7231465e-36 -5.741836e-36 4.036882e-05 -0.7924693
000350 e8 24 40 bd ef 01 24 3e ed c3 84 3e 5e d9 6f 3e
       -0.046910197 0.16016363 0.2593073 0.23422763
000360 69 00 b3 b5 7f 7e d8 be d2 bc da bc 8c d4 be 3d
       -1.3336659e-06 -0.4228401 -0.026701365 0.09317884
000370 ef 02 73 3e 42 94 59 3d 25 f2 d4 b7 8e 59 89 3f
       0.23731588 0.053119905 -2.5385127e-05 1.0730455
000380 97 07 8b be b5 e2 80 be 1f bb ac bd c7 d9 c7 bc
       -0.27154228 -0.25172964 -0.08434128 -0.024395837
000390 d3 fc 08 3d a4 c3 a0 be e4 39 f4 3d 4e 96 53 be
       0.033444237 -0.31399262 0.11925104 -0.20662805
0003a0 e0 3c 35 3e a3 4f bd 3d 94 fd b4 3e 05 c7 8e bf
       0.17699003 0.09243705 0.35349715 -1.1154486
0003b0 56 64 ea 3c c9 e8 8e bc fc cd 87 3e 7c 61 a0 be
       0.028612297 -0.017444985 0.2652434 -0.31324375
0003c0 a3 d5 ab 3e 89 f6 3b 3f 91 07 8d be 14 a7 a4 bd
       0.3356143 0.7342306 -0.27544835 -0.0803968
0003d0 42 d1 ec 3d 06 51 94 be b9 60 2d 38 63 21 a3 3f
       0.1156335 -0.28968066 4.1336494e-05 1.2744564
0003e0 ed 48 b5 be eb 74 a9 be 88 94 ad be c1 ec ec 3d
       -0.354072 -0.33097014 -0.33902383 0.11568595
0003f0 0b 98 2b 3c fc c5 b5 be 50 c4 9f bd a9 57 79 3e
       0.010473262 -0.35502613 -0.078011155 0.24349846

block1.bias f4 [100]
000000 cb 2d f5 04 15 c5 8c bd 74 66 93 be 3d d9 13 bf
       5.7641277e-36 -0.06873528 -0.28789103 -0.57753354
000010 29 ca 93 bd cc ed d5 3c 7b 70 8f be de 55 c9 be
       -0.07216293 0.026114367 -0.28015503 -0.39323324
000020 6d 59 2c be b8 bd ac 3c 27 e9 ce be ac e0 e7 be
       -0.16830988 0.021086559 -0.40412256 -0.452886
000030 f6 18 9e bd 3a fa af 3e d1 04 4e be 72 68 eb 3e
       -0.07719605 0.34370595 -0.20119025 0.45978123
000040 52 73 7c be fe cc 96 3d 09 0d 6a 3f 4c 1a c2 3e
       -0.24653366 0.07363318 0.9142614 0.37910688
000050 46 c1 11 3f 06 9a 44 be 19 9d f3 04 1b 80 12 3d
       0.56935537 -0.1919938 5.7273297e-36 0.035766702
000060 9c 0d 06 be da cb 92 3c 16 0b f2 84 37 31 91 be
       -0.13091129 0.01791947 -5.6904107e-36 -0.2835786
000070 a4 3f 86 3a 53 36 f3 84 41 04 cb 3e 8c d7 ce 3d
       0.0010242355 -5.7178914e-36 0.39651683 0.10099706
000080 7c 3a 76 3d 45 cd 6e 3d 93 93 f1 84 b8 c3 5d 3e
       0.06011437 0.05830123 -5.6794353e-36 0.21656692
000090 1c 8a 4e 3c c8 a2 69 3f 8f a9 3a be 9f ca 28 3d
       0.01260617 0.9126401 -0.18228744 0.04120886
0000a0 2c a7 e2 3e 1f 6d 53 3f 1f fb 4b be b7 e0 41 3e
       0.44268167 0.8258838 -0.19920014 0.18933378
0000b0 aa fd 96 bd 01 3d 2e be 87 f9 f4 84 d6 d4 31 3d
       -0.07372601 -0.17015459 -5.759328e-36 0.043415867
0000c0 27 6b e8 be 7e f0 e0 3d ef 6c 65 be 87 7f f0 04
       -0.4539425 0.1098337 -0.22404836 5.6540844e-36
0000d0 c8 75 f2 84 9f b7 f1 04 35 0e 31 3d 3d 59 f0 84
       -5.700209e-36 5.6827457e-36 0.04322644 -5.650568e-36
0000e0 4e 5e 25 3e 13 85 be 3e ef 20 f0 84 08 b3 6d 3f
       0.16149256 0.37210903 -5.6453974e-36 0.92851305
0000f0 68 cf 0b be 5a 88 85 3e 56 d0 8d 3c ae 9b a1 3e
       -0.13653338 0.2608059 0.017311256 0.31564087
000100 9c 8a 80 3e 2f db c2 3d eb a1 5f bd df e8 9a 3d
       0.2510575 0.09514462 -0.054597776 0.07563948
000110 9f ee 62 3f f6 27 86 bd 58 35 12 3e 3a cb b2 3e
       0.88645357 -0.06550591 0.14278162 0.34920675
000120 ab 48 8e be 59 f3 25 be ed 32 3f be b6 2a cf be
       -0.27789816 -0.16206111 -0.1867177 -0.40462273
000130 6f fe f0 84 b7 3c 51 be d1 08 96 3d 4c 5c ef 84
       -5.665739e-36 -0.20433317 0.073259 -5.627339e-36
000140 35 c2 00 bc a7 64 72 3f cc d3 fb bc 1e 11 3c 3d
       -0.007858803 0.94684833 -0.030740641 0.04591476
000150 5d 79 ee 84 ce 27 02 be 99 24 89 bd 9b f2 16 3e
       -5.6064986e-36 -0.12710497 -0.066964336 0.14740984
000160 1c b8 65 3d a0 a0 9e 3e a0 14 a3 be 3a e1 90 3e
       0.056083784 0.30981922 -0.31851673 0.28296834
000170 14 77 4b bd 45 51 c1 be 6b 10 73 3e 69 ae 7c 3d
       -0.04967411 -0.37757316 0.23736732 0.061689768
000180 69 cf d0 be 1a a0 30 3e a1 0e 51 be 4f 79 c0 3c
       -0.4078324 0.17248574 -0.20415737 0.023495344

block2.weight f4 [100, 100]
000000 18 c3 f2 84 6c 1f f4 84 cf 24 f1 04 89 a2 f5 84
       -5.7073092e-36 -5.739298e-36 5.669263e-36 -5.7748488e-36
000010 dd 0a f2 04 64 f9 f0 84 6c 7f f3 84 0d 98 f1 84
       5.6903903e-36 -5.6652758e-36 -5.7246044e-36 -5.6798464e-36
000020 cf eb f0 04 9f f6 f4 04 d4 46 f0 84 f5 af f2 04
       5.6640285e-36 5.759061e-36 -5.6488774e-36 5.7055518e-36
000030 d9 52 f4 84 a4 66 f0 84 3f 48 f1 84 e3 31 f2 84
       -5.7440208e-36 -5.651799e-36 -5.6725175e-36 -5.693974e-36
000040 dc c1 f3 04 64 90 f0 04 31 96 f2 04 63 fb f4 84
       5.7307057e-36 5.655633e-36 5.7031856e-36 -5.7594987e-36
000050 b6 60 f3 84 9b 1e f0 04 16 34 f0 04 02 db f0 84
       -5.721784e-36 5.6451836e-36 5.6471562e-36 -5.6624856e-36
000060 74 ae f0 84 79 62 f3 84 67 8b f1 04 93 e6 f5 04
       -5.658394e-36 -5.721946e-36 5.678685e-36 5.7810972e-36
000070 1a 76 f4 84 da a2 f2 84 46 b2 f1 84 5f e6 f4 84
       -5.7472583e-36 -5.7043482e-36 -5.6822546e-36 -5.7575687e-36
000080 9c 3c f5 04 9b 98 f4 04 14 73 f2 84 b9 5a f0 84
       5.7654884e-36 5.750427e-36 -5.699961e-36 -5.6507044e-36
000090 0a 88 f1 04 f3 96 f4 04 3a 5c f2 84 6b 61 f4 84
       5.678376e-36 5.750275e-36 -5.6978623e-36 -5.745359e-36
0000a0 62 2f f1 04 5a 53 f1 84 b3 72 f1 84 8c de f2 04
       5.6702342e-36 -5.6735374e-36 -5.6764162e-36 5.7098304e-36
0000b0 6f c6 f4 84 09 71 f5 84 c2 59 f4 84 88 71 f1 04
       -5.7546357e-36 -5.770303e-36 -5.7446554e-36 5.676309e-36
0000c0 a1 e8 f5 04 72 d3 f1 84 32 15 f4 84 9a 19 f5 84
       5.781286e-36 -5.685301e-36 -5.738359e-36 -5.7622735e-36
0000d0 2d 1e f5 04 80 1e f0 84 8a 7d f5 84 30 51 f2 84
       5.7626935e-36 -5.645174e-36 -5.7714513e-36 -5.6968486e-36
0000e0 93 ae f2 84 2c 3a f5 04 a3 b0 f2 04 d3 83 f5 04
       -5.7054248e-36 5.7652646e-36 5.705614e-36 5.7720285e-36
0000f0 67 b0 f4 04 ba 32 f3 84 47 a4 f2 84 32 f0 f1 84
       5.7526124e-36 -5.717561e-36 -5.704479e-36 -5.6879412e-36
000100 0a ac f0 04 03 f5 f3 84 86 26 f1 04 7d 64 f0 04
       5.658172e-36 -5.7354033e-36 5.6694206e-36 5.6516013e-36
000110 7a 9d f5 84 72 bd f0 04 30 ca f3 04 e9 ad f4 84
       -5.7743843e-36 5.6597707e-36 5.7314705e-36 -5.7523836e-36
000120 bf 6a f4 84 47 4e f0 04 dd d3 f5 84 59 ad f1 84
       -5.7462155e-36 5.6495615e-36 -5.779379e-36 -5.6818022e-36
000130 73 76 f2 04 40 2c f4 84 e4 34 f2 04 12 4a f1 04
       5.7002705e-36 -5.740476e-36 5.69425e-36 5.672685e-36
000140 fd a7 f2 04 76 97 f0 04 3f 4f f4 84 2a db ef 04
       5.70482e-36 5.6562824e-36 -5.74369e-36 5.63899e-36
000150 34 f8 f1 84 e9 14 f5 84 d1 1f f2 84 80 50 f3 84
       -5.6886766e-36 -5.7618426e-36 -5.6923145e-36 -5.7202953e-36
000160 e5 76 f2 04 08 e7 f0 04 a0 3c f1 04 00 6f f2 84
       5.7003114e-36 5.6635898e-36 5.6714503e-36 -5.6995864e-36
000170 fc 8a f2 04 4c c7 f4 84 89 35 f0 84 ba 7d f4 84
       5.7021564e-36 -5.754715e-36 -5.6472893e-36 -5.7479586e-36
000180 ca fc f1 04 85 f6 f0 84 81 05 f5 84 36 52 f1 04
       5.6890978e-36 -5.665012e-36 -5.7604278e-36 5.6734327e-36
000190 d2 c4 f3 84 4e 0a 38 3c ed 2a db 38 0b 6b b6 ba
       -5.7309776e-36 0.011232926 0.00010450729 -0.0013917399
0001a0 bc 18 1a 3c c3 c0 9b ba a6 f0 b0 bb 22 d7 97 3a
       0.009405311 -0.0011883009 -0.0053997813 0.00115845
0001b0 4e 74 6f 3d ce ff e5 3c a8 a7 2f bb cf 1d 82 3c
       0.058460526 0.028076079 -0.0026802812 0.015883354
0001c0 3e 00 a1 ba f3 17 16 3c 22 70 a2 bc f5 a9 ea bb
       -0.0012283397 0.009160983 -0.01982886 -0.0071613737
0001d0 85 88 bc 3b bc cd a3 bb 61 6c 79 39 f2 a5 c1 b6
       0.005753579 -0.0049988907 0.00023786865 -5.771167e-06
0001e0 df 42 7b 37 8a f7 8a 3c 8f 10 f5 04 cd 92 14 3c
       1.49763355e-05 0.016963739 5.761443e-36 0.009068203
0001f0 80 7e 70 ba 9d a9 fa ba 9e d3 f0 84 bf 8d dd b9
       -0.00091741234 -0.0019124035 -5.661807e-36 -0.00042258014
000200 51 71 43 38 bc 57 ef 04 c4 4d 8f 3a 4a 7a d3 bb
       4.6597157e-05 5.62692e-36 0.001093321 -0.006453787
000210 ed 78 cf 39 6a 06 a7 bb 40 76 07 82 bc bc e1 3c
       0.00039572213 -0.0050972 -9.95217e-38 0.027555816
000220 bd a6 ac 3c 45 ad f6 bb c5 a2 aa bb 77 43 f9 b9
       0.0210756 -0.0075279796 -0.005207392 -0.00047543246
000230 55 f7 9b ba 65 be b1 39 2a a2 74 3c da 81 a5 3b
       -0.0011899272 0.00033901926 0.014931241 0.00505088
000240 a5 69 67 39 74 9c d0 3c 6a 74 f4 04 7a 14 7f bb
       0.00022069232 0.025465228 5.7471034e-36 -0.0038922117
000250 42 4e 93 ba 2a a9 11 3a 8d 20 d6 ba d3 72 f1 84
       -0.0011238533 0.00055565184 -0.0016336605 -5.6764277e-36
000260 1c 8d f3 04 c4 12 f5 04 a4 d7 cf bc 17 6c f3 04
       5.7258614e-36 5.7616457e-36 -0.02537138 5.722829e-36
000270 22 e1 df 3c 3b f9 8e ba 70 0e f5 84 bb 8a be bb
       0.027329031 -0.0010908017 -5.7612482e-36 -0.005814878
000280 9b a5 e8 3b 7a d0 89 3c 7d 8e 66 bb aa 60 50 3b
       0.00709982 0.016823042 -0.0035180144 0.0031795898
000290 a8 0f 77 3a b7 75 9d bb df 05 bf 3b 0b b5 bc 3b
       0.0009424635 -0.0048052925 0.0058295573 0.0057588867
0002a0 79 55 e7 bb bc 54 cd 39 d4 c2 b7 bb c3 e5 de 3b
       -0.0070597497 0.0003916378 -0.005607942 0.006802292
0002b0 36 c5 54 3a 59 01 07 bb 96 4a 36 3c fe da 3d bc
       0.0008116545 -0.0020600169 0.011126181 -0.011587856
0002c0 d0 37 f3 84 cc 76 9f 3b 91 aa 9f 3b 46 00 f7 04
       -5.718028e-36 0.0048664566 0.004872628 5.8069672e-36
0002d0 73 dc aa 3c c4 ff 63 39 f5 53 51 bb f6 d7 cd ba
       0.020857072 0.00021743687 -0.0031940911 -0.001570462
0002e0 b4 d8 01 05 a3 f9 4d 3c 3f 32 13 ba e6 51 e8 3c
       6.105353e-36 0.012571725 -0.0005615092 0.028359365
0002f0 4c f6 88 ba 4f 7d a3 3c 05 43 ea 3b a0 f9 8d 3b
       -0.0010449379 0.019957213 0.0071491026 0.004332736
000300 42 ad 7f bb 02 d7 bb 39 5e d9 ff 3b 74 3a f0 bb
       -0.0039013182 0.00035827613 0.0078078946 -0.007331187
000310 ab af 75 3a 0f 94 ec 3c 43 a0 1c bc 16 08 52 3c
       0.0009372185 0.028879194 -0.009559694 0.012819311
000320 28 4a f5 84 b0 c0 f6 3b 6b 1b 27 3b 3d dc 13 3d
       -5.7667325e-36 0.0075302944 0.002549852 0.036098707
000330 bf 99 22 3c 04 16 22 3c fd b9 84 bb 80 dd 16 bc
       0.009924351 0.009892944 -0.004050492 -0.009208083
000340 76 07 8d 3d 0e 8c fb 3c 6b 30 33 3d fe 42 d9 bb
       0.06886189 0.030706432 0.043747347 -0.0066303005
000350 95 74 ea 3c 10 4e 65 bc b6 dd 11 3c 77 e5 a5 bb
       0.028620044 -0.013995662 0.008902958 -0.0050627547
000360 36 38 ba 3a ee e2 0c bc 54 69 ac 3b fa 44 c2 bc
       0.0014207426 -0.008599026 0.0052615795 -0.023714531
000370 ff 83 17 3c b1 91 74 3d 7d 7f f4 84 11 81 5c 3b
       0.009247779 0.059709255 -5.7481204e-36 0.0033646266
000380 c5 8f 70 bc 6b b1 1c bc f6 1d f4 04 db f3 01 bc
       -0.014682715 -0.009563784 5.739164e-36 -0.007931675
000390 80 0d 5d 3a b5 5a d9 04 f3 56 5d 3c c6 15 0b bd
       0.00084324926 5.1099756e-36 0.0135095 -0.03395631
0003a0 6f ba e3 bc dc ab 0e bc 68 1e f3 84 56 27 1d 3d
       -0.02779886 -0.008707967 -5.715695e-36 0.03836759
0003b0 ed e0 3e 3d 72 cc 69 bb d8 55 9e bb ff d1 cd ba
       0.046601225 -0.0035674837 -0.0048320107 -0.0015702843
0003c0 b2 4a 04 3d b7 8c bc 3b f7 85 74 3d 2e 6e 42 3d
       0.032297798 0.005754079 0.05969807 0.047468357
0003d0 08 ef fb 3b 71 a6 c5 3c 87 93 f1 84 bd 21 25 bc
       0.007688407 0.024127217 -5.679431e-36 -0.010078845
0003e0 30 3b dc 3b ed 0a 98 bc 8b f6 11 bd 17 c7 f2 84
       0.006720923 -0.018559897 -0.035635512 -5.707676e-36
0003f0 37 ef f3 84 bd 9e f5 84 43 99 8b bc 35 06 f2 84
       -5.734871e-36 -5.7745e-36 -0.017040854 -5.6899627e-36

block2.bias f4 [100]
000000 28 97 f2 04 b9 58 9d 3c cb a3 8d 3c 68 09 69 3e
       5.703274e-36 0.019207345 0.017290017 0.22757494
000010 75 df ef 84 05 23 82 3d 94 53 f1 84 e7 7d d2 3b
       -5.6393843e-36 0.06354336 -5.6735582e-36 0.0064237
000020 0b 4c e2 3b a4 af f0 04 a8 5f b4 3b a0 cd 0f 3d
       0.0069060377 5.658503e-36 0.005504567 0.03510821
000030 d9 d4 f4 84 4e b7 f2 04 65 38 f5 84 78 fd 7b 3e
       -5.7559594e-36 5.7062265e-36 -5.7651013e-36 0.2460841
000040 1e 5e 6d 3d fa bd f0 84 59 ee 2d 3d e3 65 f1 84
       0.057951085 -5.6598195e-36 0.042463634 -5.6752396e-36
000050 9a 19 d2 3c e0 ef ef 84 69 27 21 be 03 7c f0 84
       0.025646973 -5.640892e-36 -0.1573769 -5.6537616e-36
000060 63 0c f2 84 f5 a8 f5 84 95 ea f3 84 98 a8 f0 84
       -5.6905302e-36 -5.7754386e-36 -5.7344455e-36 -5.6578558e-36
000070 41 57 f4 84 c3 30 f5 84 db dc f5 84 a3 4f 21 bb
       -5.7444254e-36 -5.7644004e-36 -5.7802047e-36 -0.0024614118
000080 12 ae aa be 75 c0 9f 3e 71 4c 25 3e 42 df df 3e
       -0.3333593 0.3120152 0.16142441 0.4372502
000090 7b 9d ad bb c6 3b da 3d ce a2 8a bb 9d fd 01 3d
       -0.005298314 0.10655932 -0.0042308336 0.031736005
0000a0 5f e1 f2 84 58 f7 ee 84 0d bc 01 3d d3 bd 96 3c
       -5.7100897e-36 -5.618068e-36 0.03167348 0.018401062
0000b0 cc fe f9 3d bd f7 ee 84 4c 98 ec b8 bc 2c f6 84
       0.12206802 -5.6181043e-36 -0.000112817244 -5.7875404e-36
0000c0 5c 55 85 be b5 f7 25 3c f5 a4 f5 84 7b 0b e8 3d
       -0.26041687 0.010129859 -5.7750712e-36 0.11330315
0000d0 b2 c5 f3 04 f6 df f5 04 38 53 69 3d 61 56 f1 84
       5.731058e-36 5.78049e-36 0.05696413 -5.6738154e-36
0000e0 75 74 f6 bc d0 34 b3 3c 12 7f f1 84 4e 5a f4 84
       -0.030084828 0.021875769 -5.6775523e-36 -5.7447056e-36
0000f0 dd 92 4f bb d4 24 f3 84 c4 42 59 3e cd df 22 be
       -0.003167323 -5.7162847e-36 0.21216875 -0.15905686
000100 5d ed 2c 3e ea 51 f2 84 84 89 78 3d 58 4f f3 84
       0.16887422 -5.6969153e-36 0.06067802 -5.720189e-36
000110 80 97 83 3d 39 46 f3 84 9a 64 d6 3c 83 d2 f3 84
       0.06425381 -5.7193515e-36 0.026171017 -5.732235e-36
000120 ea 77 89 3e aa 5a f3 04 e6 fb f0 84 f2 7c f3 84
       0.268493 5.7212287e-36 -5.665506e-36 -5.724377e-36
000130 b6 f1 69 bb 51 d3 75 3e d1 08 2c bd 3d ca f3 84
       -0.003569705 0.24006392 -0.042000595 -5.7314752e-36
000140 2c 0c f0 84 ff a0 57 bc 00 c3 b5 bc fa a3 77 bc
       -5.6434907e-36 -0.013160943 -0.02218771 -0.015114779
000150 0f 92 f4 84 7e 41 6e 3d db cf f0 84 01 bf 9f 3d
       -5.7498258e-36 0.058167927 -5.6614614e-36 0.07800103
000160 1b c2 7c 3d 80 d8 ad 3d 76 2a f1 84 fd 22 f3 84
       0.06170855 0.0848856 -5.6697822e-36 -5.7161157e-36
000170 18 a0 f5 84 1a 7d 4a be 8d af f2 84 95 50 f4 84
       -5.7746246e-36 -0.19774285 -5.7055145e-36 -5.7438127e-36
000180 09 04 f1 04 d5 b7 d0 3d b0 60 9f 3c 11 07 f3 84
       5.6662533e-36 0.10191313 0.019455284 -5.7135515e-36

block3.weight f4 [100, 100]
000000 7f b6 f1 84 f6 b4 95 3b 44 a3 c6 3b 92 14 0d bd
       -5.6826424e-36 0.0045686914 0.0060619432 -0.034443446
000010 89 61 f2 84 55 4b ba 3b 2f 8b f3 04 f9 1e 50 3b
       -5.69835e-36 0.00568525 5.7256845e-36 0.0031756742
000020 bc 83 44 ba 48 84 f0 04 f1 55 c9 b9 24 00 78 ba
       -0.00074964366 5.654521e-36 -0.0003840174 -0.000946047
000030 b0 20 f1 04 c5 ca f0 04 05 a3 f4 04 0c 38 30 3b
       5.6688846e-36 5.6609943e-36 5.7513834e-36 0.0026888875
000040 c2 99 c9 b9 0a 9e f0 04 78 39 fa 3a 4c 20 f4 84
       -0.00038452266 5.6568865e-36 0.0019090613 -5.7393784e-36
000050 55 f5 04 3c db 52 f2 84 64 28 a5 3d 0a 7f f3 84
       0.008115132 -5.6970017e-36 0.080643445 -5.7245692e-36
000060 76 59 f0 04 a2 f6 f2 04 e2 93 f4 84 36 79 f0 84
       5.6505886e-36 5.7120423e-36 -5.7499933e-36 -5.6535044e-36
000070 6e cb ef 04 e8 f4 f4 04 4b de f4 04 cd a5 3e 3d
       5.637545e-36 5.7589035e-36 5.7568268e-36 0.04654484
000080 83 ba f7 3c 26 65 d9 3c 75 79 bf bc 7c 9e 4d 3c
       0.030240303 0.02653749 -0.023373345 0.012549993
000090 53 53 a2 3a 3d e5 55 b9 07 84 64 3c 50 be 31 b9
       0.0012384452 -0.00020398661 0.013947493 -0.00016950932
0000a0 53 34 f3 04 ac 4b f5 04 4c 38 92 b9 12 88 b9 bc
       5.7177078e-36 5.7668717e-36 -0.00027889234 -0.022647891
0000b0 fb ea 92 3c bc c5 f1 04 7b 0b 7e 38 1b b9 f1 84
       0.017934313 5.6840418e-36 6.056901e-05 -5.682882e-36
0000c0 01 3e 50 bd b1 26 85 3c 5b 92 f0 84 1a 2f b1 3a
       -0.05084038 0.016253801 -5.6558135e-36 0.0013518066
0000d0 06 b2 f0 84 bd 7e f1 04 0e 4c e0 b8 2e b6 f4 04
       -5.6587218e-36 5.677522e-36 -0.000106953186 5.753143e-36
0000e0 96 27 b2 3c ba 19 2d 3c 80 c0 f0 04 64 38 f4 04
       0.021747392 0.010565216 5.6600512e-36 5.741591e-36
0000f0 6a f7 ad 3a 35 55 f2 84 8d d2 b2 ba 74 de e7 bc
       0.0013272588 -5.6972177e-36 -0.0013643071 -0.028304316
000100 49 fd 23 ba 6f c7 f4 84 8f 2e c2 b9 9b ac f3 84
       -0.0006255699 -5.7547275e-36 -0.00037037252 -5.728754e-36
000110 85 aa 03 3b 71 5e f0 84 8b 73 28 38 14 8f f3 84
       0.0020090651 -5.651046e-36 4.016193e-05 -5.7260422e-36
000120 d2 34 f5 bc 9d dc f4 84 a0 f0 ef 84 cd 82 f2 84
       -0.029932413 -5.7566726e-36 -5.640961e-36 -5.7014048e-36
000130 43 2c f9 3b 37 4d 79 3c c2 d2 71 3d 67 cd f5 84
       0.0076041534 0.015216163 0.059038885 -5.7787855e-36
000140 2b ae f4 04 79 9e a5 3c 38 57 02 3d e6 3b c9 3b
       5.7524072e-36 0.020217167 0.03182146 0.0061411737
000150 9d eb f2 84 e6 f5 49 37 a0 1b f3 84 58 ac a2 b9
       -5.7110303e-36 1.2037786e-05 -5.7154395e-36 -0.00031027454
000160 6b 23 30 b9 79 e6 14 3c de 8a f4 04 b8 17 f3 04
       -0.00016797862 0.009088152 5.7491654e-36 5.7150808e-36
000170 09 69 f2 84 06 38 f8 3b e9 6c f4 84 a3 e0 f0 84
       -5.6990386e-36 0.007575038 -5.7464143e-36 -5.6630025e-36
000180 c9 cd f4 04 a3 f4 49 b9 47 7e 22 3a 80 6e f0 04
       5.7553108e-36 -0.00019259988 0.00061986264 5.6525207e-36
000190 f2 f7 f1 04 85 65 8f bc c0 fc 28 bd e9 f9 f7 3d
       5.688653e-36 -0.017504463 -0.041256666 0.121082135
0001a0 f8 c3 f1 04 24 2f 23 3b 37 2f f4 84 b7 d4 27 bd
       5.6838797e-36 0.0024899924 -5.7407484e-36 -0.040974345
0001b0 0e 34 72 3d 63 2f f3 04 3c 92 8f bc 43 06 bd 3d
       0.059131674 5.7172543e-36 -0.017525785 0.0922971
0001c0 ef 05 f4 04 4f 49 f2 04 59 fb f4 04 77 49 04 3e
       5.7369573e-36 5.696125e-36 5.759495e-36 0.1291865
0001d0 b9 e0 cd 3d 06 9f f5 04 7d 62 5c bc 64 3a f1 84
       0.10052628 5.7745263e-36 -0.013451216 -5.671245e-36
0001e0 7c 00 78 3d d8 80 ef 04 86 37 73 bc 2e 83 f3 84
       0.060547337 5.6306954e-36 -0.014844781 -5.7249495e-36
0001f0 24 a6 f3 04 0a e2 f2 04 1e 25 f1 04 ab f4 ef 04
       5.72816e-36 5.710151e-36 5.6692914e-36 5.6413322e-36
000200 dd 41 f3 84 5f 7c f5 04 66 99 f1 84 9d c7 42 3b
       -5.718951e-36 5.771344e-36 -5.6799702e-36 0.002972103
000210 81 b6 ac bb 35 54 1e 3e 30 a6 d6 3d 62 0d 97 3d
       -0.0052707796 0.1546181 0.104809165 0.073755994
000220 94 81 16 b8 b0 15 86 3d 55 ed 7a bc 12 99 03 bd
       -3.5883466e-05 0.06547105 -0.015315373 -0.0321284
000230 0a 64 f1 84 bc 2c f0 04 fc d2 44 3c 7b 8f e4 3d
       -5.67507e-36 5.646481e-36 0.012013193 0.11160179
000240 bf fe 3f 3b 38 58 f2 84 02 56 a0 3d 1d 88 f3 04
       0.0029296128 -5.6974943e-36 0.07828905 5.7254026e-36
000250 81 4d 3b bc 91 0e dd 3c 7c a6 f1 84 bf 23 c1 3d
       -0.011432053 0.026984485 -5.681172e-36 0.09430646
000260 c3 a9 f0 04 fd 6a f0 84 c6 9d 19 3d b0 40 f2 84
       5.657963e-36 -5.6521982e-36 0.03750398 -5.6953333e-36
000270 5c 11 f8 bc d6 d9 d4 3d 1e 42 f4 04 14 33 f4 04
       -0.030281715 0.103931114 5.7424843e-36 5.7411032e-36
000280 df e4 e5 bc f2 7b f3 84 d8 a2 95 3d 49 96 65 3c
       -0.028063236 -5.724285e-36 0.073064506 0.014012882
000290 6b 89 c2 3d fa 5b f3 84 7b b0 b8 bc 89 aa f1 04
       0.09498867 -5.7213493e-36 -0.02254509 5.681544e-36
0002a0 06 06 72 bc 3b 74 f3 04 0b 65 18 3d 78 53 ef 04
       -0.014771944 5.7235766e-36 0.037205737 5.6265284e-36
0002b0 c4 03 9a 3c 67 ca f5 84 4a 1d f4 04 40 a2 f3 04
       0.018800624 -5.77851e-36 5.7391022e-36 5.727803e-36
0002c0 b7 14 10 3c 30 6c dc 3d 88 ee 63 3d 9d 99 f3 04
       0.008794001 0.10762823 0.055647403 5.7270097e-36
0002d0 a2 a9 ef 04 d0 b5 df bc 6f 1b 86 3d 2f 32 2f bd
       5.6344413e-36 -0.027308375 0.06548201 -0.04277247
0002e0 8a 52 f0 04 64 32 c8 3b 84 96 f5 84 cc 0e 90 3d
       5.649953e-36 0.0061095227 -5.773745e-36 0.07034072
0002f0 b0 fb 4d 3c 4a 4a c0 3a 8d 1f f3 04 b4 dd f2 04
       0.012572214 0.0014670577 5.7158e-36 5.709753e-36
000300 9c 89 f2 04 82 f9 f7 3d 8c 0c f3 84 2d a1 f0 04
       5.70203e-36 0.12108137 -5.7140548e-36 5.6571745e-36
000310 dd d6 f2 84 a8 17 9f 3d 6a 2a e8 bc c5 e5 ef 04
       -5.7091247e-36 0.07768184 -0.028340537 5.639964e-36
000320 cc 0e f2 84 e6 c2 95 39 31 2e a3 bb f6 ac 4c 3d
       -5.6907515e-36 0.00028564705 -0.0049798717 0.049969636
000330 8a f1 ee 84 a5 bd 5d 3b 38 db f3 84 d0 19 be bb
       -5.617535e-36 0.003383496 -5.7330346e-36 -0.005801417
000340 94 57 55 3c e9 b2 ef 84 e9 91 af b9 6a 91 0d 3d
       0.0130213685 -5.6352933e-36 -0.00033487313 0.034562506
000350 6e 06 f3 84 42 53 f2 04 bc cc f3 84 aa d6 5c 3c
       -5.713493e-36 5.6970387e-36 -5.7317044e-36 0.013478914
000360 07 92 d2 3c 0c f3 f3 04 b4 d4 d8 bb 72 c2 f0 84
       0.025704397 5.735223e-36 -0.006617153 -5.66023e-36
000370 03 4c f4 84 1e 7f f1 04 82 a1 9e bb 6e bf f4 84
       -5.743393e-36 5.6775566e-36 -0.0048410306 -5.7539925e-36
000380 0c 8a f1 84 28 99 f2 84 bb e5 ee 84 b1 86 ef 04
       -5.6785604e-36 -5.703458e-36 -5.6164505e-36 5.6312324e-36
000390 61 51 f0 84 8d 4e f1 84 8c 3e f3 84 88 22 78 bd
       -5.6498464e-36 -5.6730965e-36 -5.7186466e-36 -0.060579807
0003a0 79 08 68 3b b7 ed 03 3d 95 80 3d bd 55 f3 0f 3d
       0.003540544 0.032209124 -0.046265204 0.03514417
0003b0 62 b2 1d ba 59 4a 07 3d 0c a4 f3 04 cf d8 f1 84
       -0.0006015656 0.033029888 5.727968e-36 -5.6857935e-36
0003c0 0f 73 f1 84 9c 60 f0 04 8f 25 4e bd 6c f6 13 3c
       -5.6764492e-36 5.651245e-36 -0.050328787 0.0090309195
0003d0 17 d0 54 bc 73 e9 f0 84 16 97 f3 84 cc 8d f1 84
       -0.012989066 -5.6638118e-36 -5.7267776e-36 -5.6789048e-36
0003e0 60 be b6 bd 7d fc 0a 3b c7 3d f2 04 6a ce b0 3d
       -0.0892303 0.0021207624 5.695066e-36 0.0863312
0003f0 6c 23 f5 84 14 0a f3 04 27 c3 85 3d d5 87 f1 04
       -5.7631753e-36 5.713828e-36 0.06531363 5.678357e-36

block3.bias f4 [100]
000000 de e1 ba 3d 84 43 97 3e 47 99 f1 3d 8e 57 83 3d
       0.09125112 0.29543698 0.117968135 0.06413184
000010 87 bf f3 04 7d 4e f0 84 4f de f4 84 11 dd f3 84
       5.7304916e-36 -5.649581e-36 -5.7568283e-36 -5.7332043e-36
000020 88 f4 f3 04 14 4a ef 84 1c 97 0e 3c eb d8 8a 3e
       5.7353592e-36 -5.625666e-36 0.0087030195 0.2711862
000030 38 02 f5 84 86 66 7b 3c f6 ed 96 be 36 c4 f1 84
       -5.760126e-36 0.015344268 -0.29478425 -5.683902e-36
000040 25 77 c4 3b 7d 97 f2 84 5e e2 87 be b6 66 ef 84
       0.0059956484 -5.7033047e-36 -0.26539892 -5.6282955e-36
000050 fc 63 b0 bd 95 29 4d be dc 24 28 3e 2e b7 c0 bc
       -0.086128205 -0.20035394 0.1642031 -0.023524847
000060 44 9d f1 84 38 f3 2f be e6 22 e8 bc 62 48 8d 3e
       -5.6803253e-36 -0.17182624 -0.028336953 0.27594286
000070 de 4e f4 84 60 56 f5 84 88 41 ee 3c 7d 65 ef 84
       -5.7436552e-36 -5.7678546e-36 0.029083982 -5.6281832e-36
000080 b2 3b 9d be 96 ce f3 84 16 03 d8 3e 86 bc 42 3d
       -0.30709606 -5.7318745e-36 0.42189854 0.04754307
000090 ff 78 02 3d a3 22 00 3e ef 22 f6 04 b0 61 f4 84
       0.031853672 0.12513213 5.7866403e-36 -5.7453836e-36
0000a0 03 2f f3 04 c8 7e 17 3e 27 d2 f4 04 7d 4d f2 84
       5.71722e-36 0.14794457 5.755712e-36 -5.696509e-36
0000b0 1d 79 f3 04 80 c4 ee 84 48 89 3a 3e b0 c5 22 3e
       5.724025e-36 -5.6133988e-36 0.18216431 0.15895724
0000c0 5d 26 f2 84 87 df 83 3e db c5 f4 84 fd 85 ee 84
       -5.6929158e-36 0.25756475 -5.7545826e-36 -5.607658e-36
0000d0 bd af f0 84 c6 b8 bf bd a8 bf ee 84 7d 1d f2 84
       -5.658512e-36 -0.093614146 -5.612954e-36 -5.6921007e-36
0000e0 3d 75 ee 84 c4 44 f1 84 a3 d6 f4 84 81 7f f2 84
       -5.6061197e-36 -5.672198e-36 -5.7561237e-36 -5.701102e-36
0000f0 c7 6f 81 3e 37 e8 91 3c 81 f5 f1 04 9f 99 f4 04
       0.25280592 0.017810924 5.6884287e-36 5.7505203e-36
000100 2d e9 3b 3e 75 e5 f2 84 48 f5 f2 84 75 5b 02 3d
       0.18350668 -5.710465e-36 -5.7119182e-36 0.0318255
000110 72 f6 9a bd a5 01 95 3e 23 c0 f5 84 1d 7e f3 84
       -0.07566537 0.29102817 -5.7775673e-36 -5.7244842e-36
000120 14 47 f4 84 53 36 f0 84 7d 11 f0 04 e5 f2 31 3e
       -5.74294e-36 -5.6473618e-36 5.643979e-36 0.17377813
000130 46 24 f3 84 b1 6c 74 3d c4 04 6b 3b 24 40 f1 84
       -5.7162337e-36 0.05967397 0.0035860995 -5.671773e-36
000140 45 eb 99 be 11 38 f1 84 b5 15 6f 3c f7 ca 2a be
       -0.3006231 -5.6710317e-36 0.014592578 -0.16678987
000150 e9 e4 88 be ae 2d 9c 3e 58 1d f2 84 fb d0 f1 04
       -0.26737145 0.305036 -5.6920875e-36 5.6850746e-36
000160 75 2f ef 84 ef b5 17 be 7d ed ef 84 78 7f 4f be
       -5.6232212e-36 -0.14815496 -5.640673e-36 -0.20263469
000170 56 34 3a 8f 46 c1 a6 3e b2 33 f5 84 58 10 ad 3c
       -9.1805876e-30 0.3256933 -5.7646698e-36 0.021125957
000180 df 8b 3b 3e 16 2a f2 84 e5 27 f1 04 a1 8d 19 3c
       0.18315075 -5.6932576e-36 5.6695465e-36 0.009372146

predict.weight f4 [1, 100]
000000 49 fb 05 3a e8 16 8a 3d 9c 3f 8b 3d c3 1a cc bb
       0.0005110992 0.0674265 0.06799242 -0.006228776
000010 d0 7e f4 04 dd 56 f0 84 03 bd f2 84 43 42 f1 84
       5.7480583e-36 -5.65035e-36 -5.7067506e-36 -5.671968e-36
000020 f4 eb f3 04 b4 13 f3 04 30 fe 55 bb 35 8f 82 3c
       5.7345714e-36 5.714712e-36 -0.0032652728 0.015937427
000030 2b ff f1 04 84 bd 97 3c 5e 35 5f bc 57 68 f1 04
       5.6893162e-36 0.018522985 -0.013623564 5.675465e-36
000040 7c 50 bf b9 3d 6f ee 04 fe 40 1b bd 51 99 f2 84
       -0.00036490324 5.6055687e-36 -0.03790378 -5.7034725e-36
000050 91 f9 64 bd 86 dc ad bc d2 1e ea 3c f7 2b 47 bb
       -0.055902068 -0.021223318 0.02857915 -0.0030391195
000060 26 31 f4 04 9f 41 b9 bd e7 6d c1 bb fa 9f e9 3c
       5.740926e-36 -0.09045719 -0.005902994 0.028518666
000070 5d 70 ee 04 f4 9c f0 04 d3 58 3a bd 9e aa f2 04
       5.605672e-36 5.6567868e-36 -0.045494866 5.7050614e-36
000080 16 29 04 bd 41 c1 f0 04 2c eb a0 3c 7a 1a 3d bc
       -0.032265745 5.6601205e-36 0.019643389 -0.011541957
000090 f6 43 e3 3d 9b 12 b9 3c 7f 46 f3 84 07 28 f5 04
       0.11096947 0.02259188 -5.7193766e-36 5.7635983e-36
0000a0 89 15 f0 84 97 30 8f bc 66 46 f4 04 fd 2f ef 84
       -5.6443506e-36 -0.017479224 5.7428775e-36 -5.62327e-36
0000b0 1d c8 ef 84 48 ac f2 84 94 10 cf bc 36 6e 9c 3d
       -5.6372405e-36 -5.7052142e-36 -0.02527646 0.076382086
0000c0 7d 17 f1 84 be 9e ae 3d 57 66 f1 84 cb 6f f4 04
       -5.66804e-36 0.085263714 -5.6752812e-36 5.746679e-36
0000d0 80 29 ef 04 28 75 19 bd 3a c0 f0 84 f2 36 f1 84
       5.622674e-36 -0.037465245 -5.660026e-36 -5.6709287e-36
0000e0 90 23 f4 84 d5 30 f3 84 7c 88 f3 84 69 a2 f2 04
       -5.7396783e-36 -5.717387e-36 -5.7254367e-36 5.7043077e-36
0000f0 e2 1d 2d 3c ff bf c6 3c 07 70 f0 04 07 7d f3 84
       0.010566207 0.024261473 5.652661e-36 -5.7243845e-36
000100 54 a1 61 3d 91 92 f2 04 f1 df f2 84 3d 1e b8 bd
       0.055085495 5.7028527e-36 -5.7099584e-36 -0.089901425
000110 c4 df 31 3b 0e b1 82 3c 5f ed f0 84 de 3a f4 84
       0.0027141431 0.015953567 -5.664172e-36 -5.7418185e-36
000120 37 6b f2 04 fa ac f2 04 9d 9c f3 04 ac 7d e3 3c
       5.6992388e-36 5.705278e-36 5.7272852e-36 0.027769886
000130 d5 ec f2 04 d7 99 ed 3d a4 21 fd 3b a0 5c f1 84
       5.7111422e-36 0.11601608 0.0077249575 -5.674389e-36
000140 10 a6 3f bc d4 14 f1 84 78 8b ab 3c 05 de 0a bd
       -0.011697307 -5.6677955e-36 0.020940527 -0.03390314
000150 1a 4e 8d bd c4 35 67 3d dd 6f f2 04 6a 37 f2 04
       -0.06899662 0.05644776 5.6996657e-36 5.6944816e-36
000160 84 9f f2 04 10 66 a1 bb dd d5 ee 84 b1 a7 bd bd
       5.704042e-36 -0.004925497 -5.6149934e-36 -0.092605
000170 e5 8c f2 04 e6 d8 2c 3d 99 a8 f3 84 d2 a2 5c bd
       5.7023318e-36 0.042199038 -5.7283858e-36 -0.053866215
000180 4a 31 9e bc 62 e5 ee 84 05 cb f2 04 16 51 7f 3c
       -0.019310612 -5.6164186e-36 5.708037e-36 0.015583297

exp_avg f4 [100, 6]
000000 b6 9d 00 80 88 9e 00 80 64 9f 00 00 90 a0 00 80
       -5.6576e-41 -5.687e-41 5.7179e-41 -5.7599e-41
000010 98 9d 00 80 64 9f 00 00 d4 a8 18 3e 8b e1 a1 38
       -5.6534e-41 5.7179e-41 0.14908153 7.719089e-05
000020 4e f2 00 b9 c0 95 7a 38 ac 1e e4 b8 69 b9 d8 b8
       -0.00012297297 5.974411e-05 -0.000108776 -0.00010334218
000030 12 5f 54 3f f0 be 7e 37 2d df ef b7 3c 1d 83 38
       0.82957566 1.5184036e-05 -2.8594945e-05 6.252012e-05
000040 a3 6b 94 38 80 a5 95 36 b2 fd 0e 3f 86 a0 8d 39
       7.077239e-05 4.4598128e-06 0.5585586 0.00027013215
000050 8a db cd b9 72 93 70 39 10 b7 d0 b9 07 54 c6 b9
       -0.00039264216 0.00022943111 -0.00039809244 -0.00037828108
000060 20 e8 79 3e b6 40 a5 39 18 73 f2 b9 2c 1c 80 39
       0.24404955 0.00031519466 -0.00046243588 0.00024435052
000070 c6 f9 15 ba 66 13 01 ba a3 63 3e b9 5f 4c 9d 35
       -0.0005721118 -0.000492385 -0.0001815693 1.1719638e-06
000080 6b f4 88 b6 77 38 b9 35 23 e4 e7 b7 de dc 93 b7
       -4.08157e-06 1.3800008e-06 -2.764358e-05 -1.7626615e-05
000090 80 52 0c bd 2f 2b d8 39 cb 31 18 ba 0a 82 a0 39
       -0.034258366 0.00041230905 -0.00058057596 0.00030614465
0000a0 69 cd 21 ba ac 9b 0e ba b0 4a 10 bf 9a 57 e0 38
       -0.0006172271 -0.0005440067 -0.56363964 0.000106974694
0000b0 9c 85 19 b9 71 a0 ba 37 84 e7 36 b9 dc 23 08 b9
       -0.0001464099 2.224764e-05 -0.00017443119 -0.0001298333
0000c0 40 83 e2 3e 30 5d 11 3b 90 7b 6a bb 0e 3c e8 3a
       0.4424076 0.0022180788 -0.0035779215 0.0017718093
0000d0 69 6e 9c bb 2b 9d 7c bb f0 0f 16 3f db 56 f9 3a
       -0.004773904 -0.0038545828 0.5861807 0.0019023077
0000e0 23 1b 3b bb 34 5b b7 3a 7a dc 74 bb 10 54 4b bb
       -0.002855011 0.0013988973 -0.003736286 -0.0031025447
0000f0 70 9d 6f 3e 18 03 7c 39 38 f8 b3 b9 b8 c7 5f 39
       0.23399901 0.00024033745 -0.00034326478 0.00021341338
000100 c2 63 bb b9 23 67 ab b9 80 53 db be 6e 04 da 38
       -0.00035741745 -0.00032692504 -0.42837143 0.00010395875
000110 3d e5 3c b9 7a 72 89 38 c0 da ce b9 56 3f 8e b9
       -0.00018014475 6.553992e-05 -0.00039454363 -0.0002713154
000120 38 07 8c bd 32 bc 52 b8 fb c6 8d 38 9e b9 3c b8
       -0.06837314 -5.0243172e-05 6.760467e-05 -4.4995562e-05
000130 d4 38 43 38 2f 3e 5f 38 dc 68 a1 3e 4e 77 b9 38
       4.654455e-05 5.3225256e-05 0.31525314 8.84371e-05
000140 97 7e 04 b9 64 91 c1 38 6a 13 4f b9 6a 4e 2f b9
       -0.0001263566 9.230038e-05 -0.0001974829 -0.00016718512
000150 8c 3f 51 3f 2c 5c 30 38 2e 1e 0d b8 dc d0 c6 38
       0.8173759 4.204751e-05 -3.3645127e-05 9.480279e-05
000160 4c 85 82 38 20 40 03 b7 78 e7 b0 3e a2 8d 7e b8
       6.2237115e-05 -7.823139e-06 0.34551597 -6.0690225e-05
000170 8a 77 b2 38 58 b4 1a 35 40 34 a7 38 e6 4c 7c 38
       8.509967e-05 5.7631905e-07 7.972913e-05 6.01531e-05
000180 50 85 40 3f d7 13 83 39 db e8 b8 b9 dd 95 7f 39
       0.7520342 0.0002500105 -0.00035268706 0.00024374523
000190 dc 83 a2 b9 25 0d a7 b9 2c 66 68 bf 55 41 97 b9
       -0.0003099729 -0.00031862516 -0.907809 -0.0002884964
0001a0 50 3a e2 39 2b d3 91 b9 28 47 f1 39 12 c4 e6 39
       0.00043149525 -0.00027813888 0.00046020118 0.00044015102
0001b0 27 ef 38 41 fe ff 97 bb 23 06 df 3b f9 bf 1f bb
       11.558387 -0.004638671 0.0068061515 -0.00243759
0001c0 60 33 d6 3b c4 47 c1 3b f5 b6 e7 3e cf 96 14 b9
       0.006536886 0.0058984477 0.45256773 -0.0001417056
0001d0 aa 0d 4f 39 a9 76 5a b8 8a 72 4e 39 b2 75 22 39
       0.00019746149 -5.208576e-05 0.0001968836 0.00015493369
0001e0 b0 da 80 3d 96 28 56 b9 fc 25 94 39 1f 5e 06 b9
       0.06291711 -0.0002042375 0.0002825706 -0.00012814299
0001f0 92 fb 8c 39 27 d1 7f 39 c0 27 1b bd a6 95 c0 38
       0.00026890315 0.0002439661 -0.037879705 9.1831476e-05
000200 3d cd 12 b9 60 71 78 38 f9 48 52 b9 ee 17 26 b9
       -0.00014000102 5.9233396e-05 -0.00020054345 -0.00015839908
000210 7e 9e 00 80 a2 9d 00 80 ba 9e 00 00 78 9f 00 00
       -5.6856e-41 -5.6548e-41 5.694e-41 5.7207e-41
000220 a0 9f 00 80 b6 9d 00 80 19 86 6a 3e 7a f2 51 37
       -5.7263e-41 -5.6576e-41 0.22902717 1.2513827e-05
000230 33 c5 0f b8 7f 9a ea 37 7c 41 e5 b8 1a fd ae b8
       -3.4277513e-05 2.7966917e-05 -0.00010931768 -8.3441104e-05
000240 38 f8 5a be 1d b9 0a 39 fe 42 44 b9 b2 c2 b8 38
       -0.2138375 0.00013229666 -0.00018716973 8.8100685e-05
000250 8a e0 91 b9 52 2b 63 b9 c0 46 b9 3d 1c c8 33 39
       -0.0002782385 -0.00021664545 0.090466976 0.00017145317
000260 d7 67 87 b9 02 dc 0a 39 70 0e 95 b9 84 73 82 b9
       -0.00025826573 0.00013242665 -0.0002843025 -0.00024881598
000270 50 9f 00 80 0a 9f 00 80 22 a0 00 80 f2 9d 00 80
       -5.715e-41 -5.7052e-41 -5.7445e-41 -5.666e-41
000280 9c 9e 00 80 ae a0 00 80 50 4f cd 3e bd 08 4f 39
       -5.6898e-41 -5.7641e-41 0.40099573 0.00019744314
000290 60 ba 93 b9 0f a2 37 39 6a 1d a5 b9 48 70 9a b9
       -0.00028176885 0.00017512612 -0.00031493168 -0.00029456825
0002a0 73 57 a2 b3 13 51 1e 33 fd 57 30 31 1f 4a 61 33
       -7.55962e-08 3.686098e-08 2.5661386e-09 5.2454308e-08
0002b0 c2 e2 16 34 f1 4c 20 32 52 9d 00 80 00 9f 00 80
       1.4052333e-07 9.33072e-09 -5.6436e-41 -5.7038e-41
0002c0 18 a0 00 00 16 9d 00 80 38 9e 00 80 46 9f 00 80
       5.7431e-41 -5.6352e-41 -5.6758e-41 -5.7137e-41
0002d0 d1 d2 4b 3f 2b ae 34 38 aa 63 59 b8 46 4e df 38
       0.79618555 4.307755e-05 -5.182965e-05 0.00010648048
0002e0 30 6c 74 b7 68 aa 85 b8 7c 9d c6 be 7a 12 19 b9
       -1.4568723e-05 -6.373675e-05 -0.38792026 -0.000145981
0002f0 39 02 55 39 75 b7 1d b9 c9 0a 79 39 a8 1b 6c 39
       0.00020314091 -0.0001504103 0.00023750508 0.00022517017
000300 e6 d2 9f 3e b8 ac e0 b8 36 52 2c 39 e0 35 9c b8
       0.3121559 -0.00010713324 0.00016433824 -7.448695e-05
000310 b8 a1 b1 39 d6 4c 7b 39 da 35 d4 3e c5 b6 45 b9
       0.0003388056 0.00023965849 0.41447335 -0.00018855471
000320 e5 6b 9a 39 08 61 d7 b8 81 bc d4 39 7c 05 a4 39
       0.00029453557 -0.000102700724 0.00040576237 0.00031284604
000330 72 a0 00 80 b6 9d 00 00 e6 9f 00 00 9c 9e 00 80
       -5.7557e-41 5.6576e-41 5.7361e-41 -5.6898e-41
000340 8c 9f 00 80 18 a0 00 80 c0 27 b9 bd d2 77 6a 3a
       -5.7235e-41 -5.7431e-41 -0.09040785 0.0008944246
000350 6c d0 c4 ba 45 d5 30 3a 46 7a 07 bb c6 48 d6 ba
       -0.0015015728 0.0006745647 -0.0020672246 -0.0016348592
000360 00 fe 2c 3c d9 27 5e 39 bb 53 a8 b9 47 6f 1d 39
       0.010558605 0.00021186414 -0.0003210584 0.00015014141
000370 89 3e df b9 18 a8 b4 b9 94 45 35 c0 7a fb 92 bb
       -0.00042580467 -0.00034457515 -2.8323717 -0.0044855447
000380 d3 e3 dc 3b 46 9e 69 bb 8d d5 67 3b 44 23 8c 3b
       0.006741026 -0.0035647317 0.003537509 0.004276665
000390 90 5f ce bd b0 51 86 38 ab 8a e1 b8 b6 5f 7f 38
       -0.10076821 6.4048334e-05 -0.00010754665 6.0885875e-05
0003a0 54 bb 30 b9 89 e5 0a b9 70 2d 5d be 57 34 3c 39
       -0.00016854453 -0.00013246214 -0.21599364 0.00017948575
0003b0 f5 63 8a b9 da a7 e9 38 4d bc a5 b9 db 25 8c b9
       -0.00026395885 0.000111415706 -0.00031611547 -0.00026731085
0003c0 34 0b e4 3e 59 21 3b 38 a6 35 7d b8 7a c8 79 38
       0.44539797 4.461533e-05 -6.0369865e-05 5.9552935e-05
0003d0 5e a0 4e b8 c6 69 8e b8 f8 8e 2f c0 df 8c c2 bb
       -4.926358e-05 -6.7907895e-05 -2.7431011 -0.0059372033
0003e0 78 b4 0c 3c 3c 26 96 bb 0d be 6a 3b f2 73 b0 3b
       0.008587949 -0.0045821946 0.0035818845 0.0053849155
0003f0 e0 6f 96 3c fb 6c be 38 4e 81 11 b9 8e e1 8a 38
       0.018363893 9.080205e-05 -0.00013876447 6.6223656e-05

exp_avg_sq f4 [100, 6]
000000 f4 01 00 00 f4 01 00 00 f4 01 00 00 f4 01 00 00
       7e-43 7e-43 7e-43 7e-43
000010 f4 01 00 00 f4 01 00 00 f3 e9 da 42 13 aa 4e 36
       7e-43 7e-43 109.45693 3.0795388e-06
000020 bd 49 4e 34 e1 5e 33 36 9d 58 3c 37 7f ba e4 35
       1.9212071e-07 2.6728305e-06 1.1226305e-05 1.7041601e-06
000030 54 0f 0e 42 81 db dc 35 9d 08 ac 33 10 4d 92 35
       35.51497 1.6455161e-06 8.010941e-08 1.0900276e-06
000040 19 69 8f 36 42 8b 39 35 ab f2 91 44 ab 71 d6 37
       4.273967e-06 6.912052e-07 1167.5834 2.5563719e-05
000050 79 98 08 36 17 2b cb 37 c0 b7 de 38 d9 27 85 37
       2.035433e-06 2.4219551e-05 0.00010620011 1.5873391e-05
000060 c0 e7 b6 44 42 96 08 38 ee 9e 32 36 b4 bd f6 37
       1463.2422 3.2564865e-05 2.6616576e-06 2.9413823e-05
000070 fb d7 08 39 35 51 a3 37 95 10 88 3b ae 85 67 34
       0.0001305043 1.946893e-05 0.0041523674 2.1562184e-07
000080 31 22 56 32 6e 84 5e 34 60 e5 11 35 e7 38 97 33
       1.2464214e-08 2.0723539e-07 5.4350494e-07 7.041836e-08
000090 64 62 19 45 5f 1a 22 38 99 a4 72 36 b1 c8 45 38
       2454.1494 3.864837e-05 3.6156619e-06 4.715537e-05
0000a0 56 1f 5f 39 51 0a 03 38 73 01 6f 42 0d e9 b0 35
       0.00021278611 3.124244e-05 59.751415 1.3180849e-06
0000b0 e0 a9 d4 33 2b a3 b8 35 9d 68 cc 36 b2 fe 7e 35
       9.9029194e-08 1.3756556e-06 6.0918524e-06 9.4993004e-07
0000c0 43 5a a3 47 20 9d 7b 3a d6 16 e5 38 c1 10 ce 3a
       83636.52 0.00095983036 0.000109238244 0.0015721546
0000d0 25 e6 e9 3b 03 cd 89 3a 2b 1b 5b 47 bc 9a 17 3a
       0.007138031 0.0010513369 56091.168 0.000578325
0000e0 49 0f 8f 38 f4 9e 80 3a 0f 81 98 3b 2f a8 31 3a
       6.8216184e-05 0.0009812997 0.004654057 0.00067770755
0000f0 ac 67 72 44 83 aa 84 37 f8 df c2 35 25 6b 9b 37
       969.6199 1.5815027e-05 1.451931e-06 1.8527333e-05
000100 0a d6 ae 38 72 76 4e 37 66 df 12 43 b5 c7 73 36
       8.3368344e-05 1.23061345e-05 146.87265 3.6326066e-06
000110 c4 68 a4 34 7b 33 30 36 ec 41 4d 37 b3 a5 f8 35
       3.0623607e-07 2.625601e-06 1.2234301e-05 1.8525665e-06
000120 e0 e1 3f 42 2c 65 74 35 05 14 8d 33 22 a7 89 35
       47.97058 9.104431e-07 6.569466e-08 1.0255937e-06
000130 7f a1 92 36 ad 1d 2f 35 09 05 33 43 5c 75 9a 36
       4.3699397e-06 6.5235764e-07 179.01967 4.60322e-06
000140 74 b8 8f 34 b3 6b 8f 36 d7 7d 92 37 08 8b 31 36
       2.6770033e-07 4.27427e-06 1.7463155e-05 2.6455982e-06
000150 1d 82 a3 42 5a db ad 36 23 e1 c2 34 71 e1 f6 35
       81.75413 5.1813377e-06 3.6299124e-07 1.839404e-06
000160 13 f6 00 37 e4 de a1 35 45 38 9e 41 66 8d 7c 36
       7.686688e-06 1.2060304e-06 19.777475 3.763323e-06
000170 4e 27 63 34 b0 53 8a 35 0e 7e 83 36 50 95 3c 35
       2.1155321e-07 1.0306157e-06 3.918779e-06 7.0252736e-07
000180 17 0c 8e 44 00 c3 be 37 8f 7d 08 36 18 57 b2 37
       1136.3778 2.2740569e-05 2.0338664e-06 2.125981e-05
000190 eb 2c c9 38 16 70 6c 37 cf ca bc 44 30 6c 02 38
       9.5927935e-05 1.4092793e-05 1510.3378 3.1095173e-05
0001a0 40 df 37 36 a6 1b f0 37 65 61 07 39 61 0b 9f 37
       2.7399074e-06 2.8623104e-05 0.00012910886 1.8959576e-05
0001b0 9f 69 0c 48 f1 12 b3 3b 1e 58 cb 39 4d 15 70 3b
       143782.48 0.0054649045 0.0003878483 0.003663379
0001c0 f8 13 76 3c bb ca 18 3b 44 57 1a 43 03 d3 9a 36
       0.015019409 0.0023314196 154.34088 4.6141226e-06
0001d0 13 72 97 34 36 2f 81 36 68 c1 8b 37 6c 8d 2d 36
       2.8208942e-07 3.8499957e-06 1.6660153e-05 2.5861327e-06
0001e0 bb c4 f2 43 2d 32 7b 37 f5 e1 92 35 84 ba 35 37
       485.53696 1.4972448e-05 1.094361e-06 1.0831867e-05
0001f0 c4 19 45 38 c9 7e f1 36 f6 f7 c7 42 e3 3e a6 36
       4.6992456e-05 7.1971194e-06 99.9843 4.9545065e-06
000200 8f e1 96 34 a2 3d 3c 36 ce 7f 46 37 8e b3 f6 35
       2.8103793e-07 2.8050058e-06 1.18314765e-05 1.8380686e-06
000210 f4 01 00 00 f4 01 00 00 f4 01 00 00 f4 01 00 00
       7e-43 7e-43 7e-43 7e-43
000220 f4 01 00 00 f4 01 00 00 6c 4d 28 41 5d b4 3f 34
       7e-43 7e-43 10.518902 1.7853877e-07
000230 5f b4 88 32 03 3f 76 34 b3 0e 84 35 e3 69 15 34
       1.5914507e-08 2.2933459e-07 9.839044e-07 1.3915228e-07
000240 12 4c 76 43 90 6f 4d 36 cd fa a9 34 fb 9f 94 36
       246.29715 3.0612318e-06 3.1661185e-07 4.429368e-06
000250 a5 3a ab 37 82 3f 4a 36 cf 11 e5 43 c7 57 10 37
       2.0412097e-05 3.0137312e-06 458.13913 8.603506e-06
000260 99 0d 40 35 91 59 1e 37 1d 53 2f 38 d2 0f d1 36
       7.154536e-07 9.438388e-06 4.1800657e-05 6.230527e-06
000270 f4 01 00 00 f4 01 00 00 f4 01 00 00 f4 01 00 00
       7e-43 7e-43 7e-43 7e-43
000280 f4 01 00 00 f4 01 00 00 bf 05 2f 44 6f 7d c5 37
       7e-43 7e-43 700.0898 2.354264e-05
000290 14 14 f0 35 47 0c 74 37 70 7b 86 38 c2 24 21 37
       1.7887237e-06 1.4546392e-05 6.41261e-05 9.604906e-06
0002a0 85 ab 81 2f 99 cc 29 2e 4a b4 2f 2d d7 e6 c6 2e
       2.3586835e-10 3.860787e-11 9.9876305e-12 9.045003e-11
0002b0 31 b4 28 2f 6b db d9 2d f4 01 00 00 f4 01 00 00
       1.5343528e-10 2.4767485e-11 7e-43 7e-43
0002c0 f4 01 00 00 f4 01 00 00 f4 01 00 00 f4 01 00 00
       7e-43 7e-43 7e-43 7e-43
0002d0 3a 03 04 43 96 5f 8d 36 0b f2 a7 34 9d b2 3c 36
       132.0126 4.213255e-06 3.1282283e-07 2.811815e-06
0002e0 4a 04 49 37 61 e9 ee 35 56 ab e8 43 60 2a 64 37
       1.1981532e-05 1.7800304e-06 465.33856 1.3599725e-05
0002f0 fb f6 91 35 29 9c 1a 37 b2 66 2b 38 f8 a5 ca 36
       1.0875223e-06 9.215474e-06 4.086522e-05 6.0393904e-06
000300 60 c1 35 43 76 90 32 36 be 94 76 34 67 a6 6e 36
       181.75537 2.6608154e-06 2.2964647e-07 3.5561623e-06
000310 ce bd 85 37 e4 4d 1e 36 f1 6f c9 43 06 96 80 37
       1.594322e-05 2.3589173e-06 402.87454 1.532865e-05
000320 5c b2 70 35 e2 35 33 37 83 fc 38 38 dc e6 e8 36
       8.9666514e-07 1.0681777e-05 4.410419e-05 6.9410144e-06
000330 f4 01 00 00 f4 01 00 00 f4 01 00 00 f4 01 00 00
       7e-43 7e-43 7e-43 7e-43
000340 f4 01 00 00 f4 01 00 00 16 02 5f 46 2e b3 1d 39
       7e-43 7e-43 14272.521 0.00015039436
000350 f6 3b 9b 37 10 98 8b 39 db 2c 9f 3a c2 66 3d 39
       1.8505361e-05 0.0002662544 0.0012144105 0.00018062725
000360 b4 e1 13 44 b7 b8 25 37 51 e9 82 35 38 26 5f 37
       591.5266 9.877774e-06 9.753659e-07 1.3300734e-05
000370 dc 1c 76 38 cf e4 10 37 d5 75 d6 47 cd 59 9e 3b
       5.8677848e-05 8.6363425e-06 109803.664 0.0048324824
000380 3e c1 ad 39 6a 5e 42 3b df f5 4a 3c c4 aa 02 3b
       0.00033141108 0.0029658326 0.012387722 0.001993821
000390 21 9d e6 42 24 86 e5 36 32 3c c0 34 a1 6f 56 36
       115.30689 6.840348e-06 3.5806585e-07 3.1953462e-06
0003a0 87 d6 51 37 6a 07 0a 36 5a 70 d0 43 07 da f7 36
       1.2507319e-05 2.0567918e-06 416.87775 7.3865554e-06
0003b0 68 1b 31 35 9d e2 0a 37 ee 24 1c 38 8b 5a b7 36
       6.597752e-07 8.2782035e-06 3.722769e-05 5.4643656e-06
0003c0 41 8c 52 42 a7 48 5e 35 16 c5 aa 33 ce 87 8c 35
       52.636967 8.280717e-07 7.9520916e-08 1.0470337e-06
0003d0 92 cc 9a 36 b4 66 34 35 6c d6 3d 48 05 4e 07 3c
       4.6133728e-06 6.720468e-07 194393.69 0.008258347
0003e0 65 a5 14 3a ff 27 a1 3b ef 26 a7 3c a6 9f 5c 3b
       0.00056703977 0.004918098 0.020404307 0.0033664494
0003f0 63 6d dd 42 70 cc 91 36 3a bd 92 34 18 19 39 36
       110.713646 4.3451364e-06 2.73323e-07 2.7581755e-06
