deep_learning/training_checkpoints/20190915-210236200.pth (torch_old, 256524 bytes, 21 tensors)

block1.weight f4 [100, 7]
000000 38 96 87 85 7f f0 86 85 55 1b 87 85 55 00 87 05
       -1.275052e-35 -1.2689644e-35 -1.2705379e-35 1.2695461e-35
000010 8a 64 86 85 f2 8c 86 85 99 59 87 05 98 4e a9 3e
       -1.2638232e-35 -1.2653075e-35 1.2728252e-35 0.33067775
000020 cf 45 dd 3e 3c 1b 81 3e 5d 19 19 3d 32 89 b4 3d
       0.43217322 0.2521609 0.037377704 0.088152304
000030 15 8c af 3d 50 38 79 3d 8e 1a 15 37 5e dd 8e 3f
       0.085716404 0.06084472 8.887275e-06 1.1161306
000040 8c 3f 59 3e 53 e9 85 bd ee c5 b8 bd 42 6c f5 bd
       0.21215647 -0.06538644 -0.09022127 -0.11983539
000050 cb 85 2c bc 36 0d 85 3e 99 bd 56 3f 92 a5 77 3e
       -0.010529946 0.25986642 0.83883053 0.24184254
000060 d6 62 9e be 8f 03 12 3e 97 f0 a5 be a5 0b b0 be
       -0.3093478 0.1425917 -0.32410118 -0.34383884
000070 e9 a3 74 38 80 07 41 bf 0d c0 88 bd e6 78 fe bc
       5.8326787e-05 -0.7540207 -0.06677256 -0.031063508
000080 42 cf 2e 3e 0a 8a 6f 3e e4 74 e0 3d 91 c9 73 3e
       0.1707125 0.23392501 0.10959795 0.2380736
000090 72 ca 6f bf 4d 0b 96 3e 07 54 17 3e f9 8b 82 be
       -0.9366828 0.29305497 0.14778148 -0.25497416
0000a0 d2 d2 19 3d cb fb 7d be ec 26 16 3e 50 9b 3f bf
       0.03755457 -0.24803083 0.14663285 -0.74846363
0000b0 02 2c 8a bd 4e 04 8e 3e 11 bd a8 3e 8f 50 5a 3e
       -0.06746675 0.2773766 0.32956746 0.21319793
0000c0 52 e7 5d be e5 aa 37 3e 74 ea 8e 3e 33 60 82 be
       -0.21670273 0.17936285 0.2791325 -0.2546402
0000d0 72 b9 9c be 14 9a d5 3e bc 8c 2f 3d a1 6c b6 3e
       -0.30610234 0.41719115 0.042858824 0.35629752
0000e0 45 65 5d bc 98 04 9e 3d ec c2 c7 3b 91 41 93 bc
       -0.013512914 0.0771572 0.0060962345 -0.0179756
0000f0 74 d8 c2 3c 30 bb 10 3e cd 0b 02 3d 3a 11 49 3e
       0.023784854 0.14133906 0.031749535 0.19635478
000100 6f c6 3d bf 9d e6 79 be 35 86 29 be 81 d3 26 be
       -0.7413091 -0.24404378 -0.16555102 -0.1629162
000110 b8 58 a1 3e 2c d6 50 be 4f d3 26 37 c1 1b 13 3f
       0.31513 -0.203942 9.94357e-06 0.57464224
000120 66 39 a9 3d 1e 72 31 be c9 1d a9 bd d1 5f 1c be
       0.08262901 -0.17328689 -0.08257634 -0.15270926
000130 c3 17 bf 3d 29 c8 5a 3e c0 94 87 bf 8c 33 43 3e
       0.09330704 0.21365418 -1.059227 0.19062632
000140 3d 0f 12 3e a6 59 e7 bd 1a 42 e8 3e 26 63 93 be
       0.14263625 -0.11296396 0.4536293 -0.28786582
000150 a3 8e 91 3e b7 6b 04 3f 5f 6a f2 bd 2c 95 f1 bc
       0.28429136 0.5172686 -0.11836695 -0.029490076
000160 bd 03 95 bd 25 b1 0e 3e 48 6c 51 3e 6d e7 95 3d
       -0.07276104 0.13934763 0.20451462 0.073195316
000170 dd ca 5d 3f 7b 24 a9 3e 87 a1 8b be a1 f9 e1 bd
       0.8663767 0.33035645 -0.27271673 -0.11033941
000180 ea b3 17 3e 7e e3 f7 ba ec f2 4c 3e 2b 27 10 3f
       0.14814726 -0.0018912402 0.20014542 0.56309766
000190 43 f4 3f bd 91 2d 90 3e 57 bb 64 3e 97 3f d6 be
       -0.046863806 0.28159764 0.2233709 -0.4184539
0001a0 dd 8f 8d bd b4 7a 87 85 72 9a 86 85 c8 b6 86 85
       -0.06912205 -1.2740413e-35 -1.2658034e-35 -1.2668443e-35
0001b0 d9 fd 86 05 e2 4c 86 85 96 09 87 85 9c 1c 87 85
       1.2694548e-35 -1.2629542e-35 -1.269886e-35 -1.2705848e-35
0001c0 a2 c3 0f 3e 9e 45 3a 3f 2d 84 9b 3e 4f 9a b5 be
       0.14039472 0.7276248 0.3037428 -0.3546929
0001d0 4d 2f 51 3e 7c 8f a9 bb ed 56 bb bd 7c b6 09 3e
       0.204282 -0.0051745754 -0.09147439 0.13448519
0001e0 f3 8c 69 3f 41 93 8c 3d 38 8f d2 bc 80 b5 be 3d
       0.91230696 0.06864024 -0.025703058 0.09311962
0001f0 82 c6 4c 3e 3c 9d 8e 3e 8c 6b 24 3e 8f fb b1 3e
       0.199976 0.27854335 0.16056651 0.34762236
000200 76 bc 8c 3e cb 2d ad bd 75 3d 9c 3e af fb 7e 3e
       0.27487534 -0.08456 0.30515638 0.24900697
000210 00 cb d0 3d d7 fa cd bd aa f6 89 38 f0 c3 d2 bb
       0.10194969 -0.100576095 6.578614e-05 -0.006432049
000220 3f 26 0a bc 03 51 e3 3d 7c 2a 27 3e 48 a7 95 3d
       -0.00843197 0.11099436 0.163248 0.07307297
000230 05 68 77 3e bd e1 33 be 01 6a 46 bd d2 14 07 bd
       0.24160774 -0.17566581 -0.048440937 -0.03297884
000240 dd a4 36 bd e2 06 82 3d 44 af 74 3e 89 4b 4e 3e
       -0.04459082 0.06348969 0.23894984 0.20146002
000250 ab 0d 82 bf 82 fd a0 3e c1 5a 7e 3e 80 0e 44 3e
       -1.0160421 0.3144341 0.24839307 0.19146156
000260 f2 92 ac 3e ea f3 2b 3e 58 85 b6 3e 2c 2c 47 bf
       0.3370586 0.16792265 0.35648608 -0.77801776
000270 d9 54 c3 3d b2 eb 78 3e ab fe 79 3e a3 fa de bc
       0.09537668 0.2430866 0.24413554 -0.027219122
000280 31 b4 18 3e 6b 0a af 3e e3 ae ba be 37 3b fe 3d
       0.14912488 0.34187636 -0.36461553 0.12413638
000290 10 2b 9d be 9d 53 22 3c 6f 6b bb 3e 87 e3 c7 3d
       -0.30696917 0.00990763 0.36605403 0.09760194
0002a0 1f 78 59 bb dc db 03 3d 9e e8 f5 ba 46 eb 00 bd
       -0.003318317 0.032192096 -0.0018761342 -0.031474374
0002b0 91 83 b8 3d 1a ff 52 3d ea a6 3e 3d e9 f3 68 3e
       0.09009469 0.051512815 0.0465459 0.22749294
0002c0 b3 d9 17 be 59 44 62 3e bf 56 03 be e4 bd 5a be
       -0.1482914 0.22096385 -0.1282606 -0.213615
0002d0 0e 6b 0d 3d ed 29 27 be 26 aa a8 3e c2 c9 11 3f
       0.034525923 -0.16324587 0.32942313 0.56948483
0002e0 00 39 d8 3e d3 f2 5d be 19 7c 86 be b1 34 ab be
       0.42230988 -0.21674661 -0.26266554 -0.33438638
0002f0 22 5a 30 3e cd 1c 95 38 4d 8b 87 3f 96 02 73 bd
       0.17221883 7.110238e-05 1.0589386 -0.059328638
000300 91 be 81 3e 36 cc 70 3e 69 c7 c2 be 78 25 3f be
       0.25340703 0.235154 -0.38042763 -0.18666637
000310 f5 ea 53 3d b9 82 03 3f da 0f cb bc 0a 4c f4 3d
       0.051737744 0.5137134 -0.024787832 0.11928566
000320 99 97 24 bd 8b 2c 51 bd 63 52 65 3d ef 99 73 3e
       -0.040183637 -0.05106787 0.055986773 0.2378919
000330 b0 7d a5 3e 43 71 6d 3e ce ee a6 bd 7b 14 84 3e
       0.32322454 0.23187737 -0.08151017 0.25796875
000340 82 a5 2d be c3 a8 0b be d9 27 c3 38 7f c8 48 bf
       -0.16957667 -0.13638596 9.305747e-05 -0.7843093
000350 fc b8 60 bd 36 fa 29 3c 45 e5 45 3c 2e 38 94 3e
       -0.054863915 0.010374596 0.012078588 0.28949112
000360 b1 a5 d4 3d e7 e3 f8 bb 69 ec ac b9 64 06 c1 ba
       0.10383166 -0.0075955275 -0.00032982536 -0.0014726636
000370 bb 20 d1 ba 5a 0d f1 3b 36 99 6e 3c 7e 38 1c 3b
       -0.0015955189 0.007356328 0.0145628955 0.0023837383
000380 88 74 86 85 30 5a 87 85 68 ad 86 85 d0 0d 87 85
       -1.2644106e-35 -1.2728469e-35 -1.2664999e-35 -1.2700413e-35
000390 00 96 86 85 68 c0 86 85 c0 9d 86 85 a3 73 73 bd
       -1.2656401e-35 -1.2671978e-35 -1.2659248e-35 -0.05943645
0003a0 a8 33 13 bc 55 5f d8 bb e5 5a 04 bc 06 45 01 3e
       -0.008984484 -0.0066031613 -0.008078312 0.12623987
0003b0 1b 57 76 3d e2 2e 77 3d 93 01 57 3e aa da e6 3e
       0.060141664 0.060347445 0.20996694 0.45088702
0003c0 42 66 7c be cd 77 54 be 7f 8b 97 3d a3 52 a0 be
       -0.24648383 -0.20748825 0.07399654 -0.31313047
0003d0 6f c7 5b be 47 66 14 b9 cf 10 b7 3e 6b eb 44 3d
       -0.21462797 -0.00014152481 0.3575501 0.048076075
0003e0 4d 87 f0 bd 45 e6 04 bd 42 0e 91 bd 66 8e d4 3d
       -0.117445566 -0.032446165 -0.070827976 0.10378723
0003f0 3e 2e d4 36 2d 7d 31 3f 28 70 cb 3d ed 90 4c be
       6.3234756e-06 0.6933163 0.099335015 -0.1997716

block1.bias f4 [100]
000000 98 52 86 05 39 b8 37 3e 56 e9 03 3f c1 2c 22 be
       1.263164e-35 0.17941369 0.5152792 -0.15837385
000010 96 5c a4 3c 0f 9a cf bd 64 0e d7 be d6 90 d7 3e
       0.02006368 -0.10136806 -0.42003167 0.4210269
000020 97 a4 34 3d 48 2b d5 ba ec bf b4 3e 0b d1 57 3e
       0.044102278 -0.0016263509 0.35302675 0.21075837
000030 20 cf ec bc 30 4d 4d bd 56 b6 8b be e2 4c 86 85
       -0.028907359 -0.05012244 -0.2728755 -1.2629542e-35
000040 62 a6 13 3e a7 af 29 bc 2d f7 22 3e bf 62 9d 3b
       0.14418939 -0.01035682 0.15914603 0.004803031
000050 63 c6 85 be 9f 53 0d be 2e 63 40 3e 06 8f 94 bc
       -0.2612792 -0.1380143 0.18787834 -0.018134605
000060 e3 80 86 3d 04 e9 ad 3e a2 00 96 3e d2 96 a3 3d
       0.06567552 0.3396684 0.29297358 0.07987751
000070 58 6c 3a be 3c ca 67 3c a9 75 34 3d a6 4d 62 3a
       -0.18205392 0.0141473375 0.044057522 0.00086327863
000080 22 84 87 85 c0 d0 10 3c 73 5f 3f 3e 30 b6 a0 3e
       -1.2743877e-35 0.008838832 0.18688755 0.31388998
000090 68 d9 ab 3e f9 67 87 05 f3 27 a0 be 80 1f 18 be
       0.33564305 1.2733533e-35 -0.3128048 -0.14855766
0000a0 a6 be d2 3d 68 97 eb bd 51 ec fb 3c 1f 08 85 bd
       0.102902696 -0.11503488 0.030752333 -0.064956896
0000b0 6f 42 94 3d 83 0b 9e 3e 23 64 20 3e f2 49 86 85
       0.07239234 0.30868158 0.15663199 -1.2628463e-35
0000c0 55 0f a8 be a0 62 d4 3e 8e 1b cb 3d b3 88 79 3d
       -0.32824197 0.41481495 0.09917365 0.060921382
0000d0 fa 31 d8 be 39 79 1a 3d 08 f4 c2 3e bf 7c 86 05
       -0.4222563 0.037713263 0.38076806 1.2647124e-35
0000e0 ed 31 52 3b 76 9e 30 3d 1b b3 ad be 71 c1 2f bc
       0.0032073215 0.04311987 -0.3392571 -0.010727272
0000f0 ff a0 df 3c 91 f6 4a 3e a6 17 a2 3c 72 31 f5 3e
       0.027298449 0.1982062 0.019786667 0.47889286
000100 86 15 de 3e a0 f7 07 3d e2 17 c6 bd 45 59 a4 bd
       0.43375796 0.033195138 -0.09672524 -0.08024839
000110 62 40 c4 3d c7 86 a5 bd 04 ea 84 bd 6f e8 07 3c
       0.095825925 -0.08082347 -0.064899474 0.008295163
000120 80 24 6a be 77 0f b6 be a5 45 71 bd 5c a9 2f 3d
       -0.22865486 -0.35558674 -0.05890431 0.042886123
000130 76 9a a7 be f3 06 c9 3c 01 6e d0 bd 6d b1 ae 3e
       -0.32735032 0.024539446 -0.101772316 0.3411974
000140 34 fa a7 3e a7 e1 02 3e 46 e4 4a be c0 7f 0b be
       0.32808077 0.12781392 -0.19813642 -0.13622952
000150 7b fe 90 be d5 a5 9d 3b 1d 34 4a 3c bd ce 42 3d
       -0.28319153 0.0048110285 0.012341526 0.047560442
000160 2f 84 61 be 88 13 65 3d c1 8a 10 3d 8c 27 69 be
       -0.2202308 0.05592683 0.035288576 -0.22768992
000170 26 25 95 be 23 da a5 3e 53 4e b2 be 92 a3 6d 3e
       -0.29129905 0.32392988 -0.34825382 0.23206928
000180 ee 56 08 3b 42 6d 11 be 79 d4 2e 3d 08 b5 86 85
       0.0020803767 -0.14201835 0.0426831 -1.26678e-35

block2.weight f4 [100, 100]
000000 99 34 86 85 8c a0 10 bd 95 60 04 bf 5a 75 54 bd
       -1.2620621e-35 -0.03530936 -0.5170987 -0.051869728
000010 a3 5a e0 3d 8d d3 94 3d 9c 8a d3 bd 28 36 a6 3d
       0.109547876 0.072669126 -0.10329172 0.08115798
000020 10 d7 ed bb db 8d bc 3d 86 5b a1 be 32 41 9e 3d
       -0.0072583035 0.09206744 -0.3151514 0.07727279
000030 45 9d 17 3d 10 cc 2e bd b4 96 24 3d 72 28 87 85
       0.03701522 -0.042675078 0.040182784 -1.2710196e-35
000040 d7 5e 99 ba 16 a8 76 bd 09 cc 37 bb f8 6d 07 3c
       -0.0011701238 -0.060218893 -0.0028045198 0.008265965
000050 5f 1b 90 bd a1 2a 5f 3d 8f ab 81 3d 13 f7 79 3d
       -0.070364706 0.054484013 0.0633155 0.061026644
000060 42 c3 01 3d 96 e0 4e 3d 68 d7 ae 3d 70 70 b6 3c
       0.031680353 0.05050715 0.08537179 0.022270411
000070 97 21 c9 ba d0 e0 c6 bd b4 4a db 3d 46 73 eb 39
       -0.0015345094 -0.09710848 0.10707608 0.00044908578
000080 c0 56 87 85 8c 55 84 3b 0f 43 bd 3d 73 3c 61 be
       -1.2727206e-35 0.0040385183 0.09241306 -0.21995716
000090 2f 65 a9 be 26 62 87 85 66 02 ae 3d fe 5f 8e 3d
       -0.3308501 -1.2731393e-35 0.08496551 0.06951903
0000a0 1e ec 64 3d 4d bb 20 bc ee 1a 4f 3d f2 bc ba bd
       0.05588924 -0.009810281 0.05056279 -0.0911807
0000b0 63 c4 ad b9 f0 e9 82 be 2f 1d 44 3d 00 34 03 85
       -0.0003314345 -0.25569105 0.047879394 -6.169141e-36
0000c0 49 a3 83 bd 2c 9e 4f bd e1 ec d8 bd 91 9a 9b 3b
       -0.064276285 -0.050687954 -0.10592056 0.0047486504
0000d0 73 43 9b 3c b2 f6 b5 3d 78 9c d6 bd 66 25 86 85
       0.01895306 0.08884944 -0.10479063 -1.2615037e-35
0000e0 61 a7 84 3b 3a 89 8b 3d ac f6 16 bb f8 f0 d8 3c
       0.0040482734 0.06813283 -0.0023035211 0.02648209
0000f0 72 17 b8 3c f2 34 37 3c 5b 5c 6f 3c 56 20 40 be
       0.022472117 0.011182057 0.014609422 -0.18762335
000100 cf 88 5e 3d 04 7a a6 3d 8f 8d 1c 3d a0 00 92 3c
       0.05432969 0.081287414 0.03822094 0.017822564
000110 7f a8 73 bd a0 32 6d 3c 58 fa 18 3d 47 ec 73 3b
       -0.059486862 0.014477402 0.03734812 0.003721969
000120 39 7a 7e 3d e2 ea 49 3d 5b 09 cd 3c 0b 0e 78 3c
       0.06212828 0.049296267 0.025028875 0.015140067
000130 a0 68 04 3d 6b a1 52 3c dd 31 6e bd c6 bd b3 be
       0.03232634 0.012855868 -0.058153022 -0.35105723
000140 16 f4 be bd bd 6f 22 3b 0f 1e ed 3c 7f 45 39 3d
       -0.093238994 0.002478584 0.028944997 0.045232292
000150 9f 2b dc bc 49 97 1c bb d6 40 9a 3b e5 3e 5f 3d
       -0.026876269 -0.0023893884 0.004707436 0.05450334
000160 d7 02 6d 3d 2b ee e4 3a 2a c9 02 3c 43 f1 14 bd
       0.057864036 0.0017465999 0.007982532 -0.036362898
000170 1a 0f 2d 3d 5d 19 1b 3d 1b 02 a5 3c da b0 bb 3d
       0.04225073 0.037865985 0.020142606 0.09164591
000180 5e 96 19 3d ac 51 9a bd 02 00 dc 3c 24 5a 87 85
       0.037496917 -0.07535109 0.026855472 -1.2728451e-35
000190 ec 9a 87 05 84 47 93 bb c7 b0 fe 3e ea 98 a6 3d
       1.2752248e-35 -0.0044946093 0.49744245 0.08134635
0001a0 f5 36 e9 bd 34 6b 39 3c 54 e7 a9 3d 0f 6c 95 3d
       -0.11387435 0.011317063 0.082960755 0.07296001
0001b0 86 12 15 3d c6 3d 10 3d bb c4 9d 3e da a7 0b 3c
       0.03639462 0.03521516 0.30814156 0.008523906
0001c0 94 f8 94 3d 95 cf 8a 3d 0b f7 ab bd 1b 84 86 05
       0.07273975 0.067778744 -0.08396729 1.2649827e-35
0001d0 3c 2f 3b 3b ab 1d a8 3d 63 a7 43 3d 73 b7 5c 3c
       0.002856209 0.08208784 0.047767054 0.013471472
0001e0 79 e9 ac bc a7 7f 17 3d a7 74 88 3c 6d a1 88 3d
       -0.021107422 0.036986973 0.016657187 0.066714145
0001f0 c2 3b 8f 3c fb 62 ed 3c 15 02 4f 3d 2e d2 60 3d
       0.01748455 0.028977862 0.050539095 0.054887943
000200 fe 8e 9a 3d 53 02 2e bd 3d f4 c9 bd 70 e3 53 3a
       0.07546805 -0.042482685 -0.09861038 0.0008082902
000210 e0 76 87 05 02 0f 28 3c 30 a7 36 bd bc 1a 5f 3e
       1.2739007e-35 0.010257484 -0.044593036 0.21787542
000220 d3 70 a5 3e 03 ed 86 05 25 98 a3 bd e9 c4 b6 ba
       0.3231264 1.2688364e-35 -0.07988004 -0.0013944182
000230 32 8f ae bc 1d bd 63 bd 3d b3 03 ba 7e d2 87 bd
       -0.021308515 -0.055600274 -0.0005023962 -0.06631945
000240 3f 33 1c 3d f2 3b 81 3e f6 25 7f 3d f8 74 86 05
       0.03813481 0.25241047 0.06229206 1.2644267e-35
000250 eb 40 97 3c f4 b0 b6 3d a5 e9 14 3d 2b 76 3e 3d
       0.018463572 0.0892047 0.036355633 0.046499413
000260 44 26 d0 bd 0b fd bb bd ec e2 81 bd 3c 36 87 85
       -0.101635486 -0.091791235 -0.0634211 -1.2715262e-35
000270 8a 82 89 3b ab 85 90 bd 3b 82 a2 bc 3d a2 c6 3b
       0.0041964697 -0.07056745 -0.01983749 0.006061821
000280 4c 91 1d 3c d4 7a b9 3c 6c 60 73 3c ac 28 52 3e
       0.009617161 0.022641577 0.014854532 0.20523328
000290 17 c0 5c bd 46 a9 ae bd d9 2e 56 3d 10 58 3e 3d
       -0.05389413 -0.0852838 0.05229077 0.0464707
0002a0 25 8a 2d bd 8d 17 48 bd d1 c3 0b bc 93 fc 1b 3c
       -0.042368073 -0.048850585 -0.008530573 0.009520668
0002b0 b4 61 dc 3d 46 42 87 3d 98 a0 e5 bc 54 2f 8a 3c
       0.10760823 0.066044375 -0.028030679 0.016868271
0002c0 2d 70 81 bc ed 62 c0 3c 4b b4 aa bb 93 2f b0 3e
       -0.01580056 0.023484671 -0.005209481 0.34411296
0002d0 c8 48 56 3b 87 1f 93 3d ad f3 02 bd 8c 9c 26 bd
       0.003269719 0.07183748 -0.03197067 -0.04067664
0002e0 d8 da 6a ba 87 bd 02 3d 74 6a d1 3b d9 35 e8 bc
       -0.0008959002 0.03191903 0.006390864 -0.028345989
0002f0 6e 33 1e bd 57 e1 05 3c f1 d8 27 3d e2 21 aa 3d
       -0.038623266 0.008171401 0.040978376 0.08307244
000300 82 3f e4 3c cb 6b 27 3b 03 9d 41 3c ba 3c 98 3d
       0.027862314 0.0025546427 0.01181722 0.07433458
000310 37 99 07 bd 6f a3 77 3d 35 7e 59 3c c7 76 86 05
       -0.0331051 0.060458597 0.013274719 1.2644931e-35
000320 28 a6 86 05 b4 ce c3 bd c9 c1 e9 be 26 12 34 3d
       1.2662336e-35 -0.0956091 -0.4565566 0.04396262
000330 85 c4 e2 3d 43 3a a2 3d f0 57 35 bd 09 ed 90 3a
       0.110726394 0.07921269 -0.044273317 0.001105697
000340 47 e8 33 bb 50 7c 0c 3d be e5 9d be 92 86 1c bd
       -0.002745168 0.03429824 -0.30839342 -0.038214274
000350 d4 9a cc bd 3f 3d 8b bd f3 bb a8 3d 44 84 87 85
       -0.099904686 -0.06798791 0.082389735 -1.2743926e-35
000360 61 ea ca bd 3b ee 30 bd be d8 4f 3d ce f4 47 3c
       -0.099079855 -0.043195944 0.05074381 0.012204362
000370 37 6b b8 3d b7 c1 83 3b 04 70 a7 3d 71 af 4d 3d
       0.090048246 0.0040208953 0.08175662 0.050216142
000380 e7 9b 34 3d 97 52 a4 3d 60 d2 48 3d 90 93 91 3b
       0.044093993 0.08023565 0.049028754 0.0044426396
000390 1a 60 65 bd c9 9f 07 3d 50 1e c2 3d 11 d5 25 3a
       -0.055999853 0.033111367 0.09478438 0.0006326
0003a0 68 b2 86 85 d8 86 39 3c 07 c4 8c bd 32 cd 5a be
       -1.2666836e-35 0.011323653 -0.06873327 -0.21367338
0003b0 f3 ce a5 be 9a c6 86 85 fa cb 1e 3d cd e3 61 bd
       -0.32384452 -1.2674254e-35 0.038768746 -0.05514889
0003c0 88 65 ac 3d 04 9f bb 3b 98 74 9b bc d4 4b 7a bd
       0.08417803 0.0057257432 -0.018976495 -0.06110747
0003d0 10 bd fc 3b 6d 5f 7a be 52 16 c8 ba da c1 86 05
       0.0077129677 -0.24450465 -0.0015265441 1.2672509e-35
0003e0 b8 64 b1 3d c3 61 ae bd 85 49 0f bc 7e c6 c0 3c
       0.08661789 -0.0851474 -0.008745556 0.023532148
0003f0 ad 71 b4 bc c8 7d b8 3d 78 10 1b bc 1e 25 86 05
       -0.022026861 0.09008366 -0.009464376 1.2614934e-35

block2.bias f4 [100]
000000 73 85 3b be 2d a2 88 3b 57 38 b8 bd b2 1e 87 85
       -0.18312626 0.0041697235 -0.08995121 -1.2706615e-35
000010 0e f2 a1 3d 64 70 86 85 a6 36 bf 3d 91 32 ba 3c
       0.079074964 -1.2642585e-35 0.09336595 0.02272919
000020 35 60 a8 3d 17 a3 01 3d a0 f9 89 3d da 13 a5 3d
       0.08221475 0.031649675 0.06737065 0.08060427
000030 38 68 8f 3d dd 7d 06 bd 20 31 90 bc c8 4b 86 85
       0.070023 -0.032834876 -0.01760155 -1.2629137e-35
000040 a5 5f c3 3d bd 3f a0 3d 08 6d 86 85 3d 17 f0 bd
       0.09539727 0.07824657 -1.2641351e-35 -0.11723182
000050 8d 34 b6 3d 9a 6f c9 3d 5d 19 11 3d 60 5f 86 85
       0.08896742 0.098357394 0.03542458 -1.2636335e-35
000060 8b 47 87 85 8b cc 59 3c 6f 60 db 3d fd a4 c2 3d
       -1.272162e-35 0.013293396 0.107117526 0.09504125
000070 08 8d 48 3d 52 ab 86 85 c0 e5 7e bd 0c ac 86 85
       0.048962623 -1.2664233e-35 -0.062230825 -1.26645e-35
000080 65 ae 8c bd 16 02 04 3e 16 53 11 be 66 66 8a 3d
       -0.068692006 0.1289142 -0.14191851 0.06757812
000090 1f b9 02 3e da 21 86 85 6f ac bc 3d e0 04 21 3e
       0.1276593 -1.2613735e-35 0.092125766 0.15724516
0000a0 ba 58 86 85 11 0e 9f 3d 80 34 86 85 c9 f9 cb 3d
       -1.2633892e-35 0.07766355 -1.2620585e-35 0.09959752
0000b0 ef 2f dc 3d 73 a8 86 85 b5 ed 44 3d de e3 8c 3c
       0.1075133 -1.2663178e-35 0.048078258 0.0171985
0000c0 ac b2 20 be d4 5f 87 05 33 ab 19 3d a7 1c 1c 3e
       -0.15693158 1.273054e-35 0.037516784 0.15245305
0000d0 bd d5 da 3d 2b 62 ec 3c 73 c3 1d 3d 48 9b 86 85
       0.106852986 0.028855404 0.038516473 -1.2658341e-35
0000e0 2b 51 da 3d 38 40 87 85 a6 98 63 3c 0c 6f 38 bd
       0.10660013 -1.2718929e-35 0.013891375 -0.045027778
0000f0 15 9c da 3d c4 90 86 85 f1 a3 9b bc 14 46 f3 ba
       0.106743015 -1.2654478e-35 -0.018999072 -0.0018560314
000100 dc 3c 86 85 3a 28 da 3d 3b 70 a4 3d d5 8a 79 3d
       -1.2623656e-35 0.10652204 0.08029219 0.060923416
000110 4f 85 87 85 7d 5d 9b ba 01 d3 86 85 fb 4b ed 3c
       -1.2744309e-35 -0.0011853423 -1.267881e-35 0.028966894
000120 e2 06 e9 3d 40 5d da bb c3 f1 5e 3c 54 64 87 3d
       0.11378266 -0.0066639483 0.013607445 0.06610933
000130 60 b3 91 3c 3c 5c f8 bc 64 7d 86 85 23 7e 24 3e
       0.017785728 -0.030317418 -1.264736e-35 0.16063742
000140 be b0 26 be 35 3d 87 85 68 35 38 be c6 05 87 85
       -0.1627836 -1.2717823e-35 -0.17989123 -1.269746e-35
000150 d3 b0 86 85 13 0c 62 3c 0f 18 19 3d d4 15 87 85
       -1.2666254e-35 0.013796824 0.03737646 -1.2703357e-35
000160 17 52 85 3b 17 12 db 3d 8f 63 11 3d d9 58 87 85
       0.0040686238 0.1069681 0.035495337 -1.2727976e-35
000170 be e9 06 bc c0 28 86 85 d3 3e eb 3b 7c a0 9f 3d
       -0.008234439 -1.2616269e-35 0.00717912 0.07794282
000180 52 c2 ec 3d 31 26 87 05 79 e2 86 85 a8 6b 0c 3c
       0.11560501 1.2709368e-35 -1.2684492e-35 0.008570589

block3.weight f4 [100, 100]
000000 8a f0 41 bd 13 ff a3 bd 0a d4 9a 3c 84 cc 86 05
       -0.047348537 -0.08007636 0.018899936 1.2676427e-35
000010 d0 ec 11 3c 70 4d 87 05 7a 2a 2f 8c 46 60 52 3b
       0.008906558 1.2723785e-35 -1.3494292e-31 0.003210084
000020 c8 71 15 3c a2 9d aa 3b b6 74 87 05 54 8e f8 bc
       0.009121366 0.0052067796 1.2738212e-35 -0.030341305
000030 55 33 3d ba ae db 11 bc 31 a4 82 3d e0 64 87 85
       -0.0007217427 -0.008902473 0.06378973 -1.2732395e-35
000040 7c b1 81 ba d5 45 45 3a fb 49 87 05 cd 16 c8 3b
       -0.0009894813 0.00075253594 1.2722515e-35 0.0061062337
000050 f2 99 bf 3b 2b 7d 72 ba f7 e2 b5 3b 61 51 86 85
       0.005847209 -0.0009250219 0.005550738 -1.2631193e-35
000060 d6 cc 86 05 62 20 74 3d 69 ac ab 88 74 33 ae 99
       1.2676544e-35 0.059601195 -1.0332222e-33 -1.801196e-23
000070 14 9f 77 ba 8e 5b 86 05 48 7a a0 bd 5a bc 86 05
       -0.0009446007 1.2634931e-35 -0.07835823 1.2670489e-35
000080 27 5b 9c 3d 79 f2 98 3b 4d 5d 73 3d d5 7e 00 3c
       0.076345734 0.004667577 0.05941515 0.007842739
000090 d1 85 1c bb 80 56 86 85 f3 78 09 8d 3c a4 5e bd
       -0.0023883472 -1.2633075e-35 -4.236197e-31 -0.054355845
0000a0 e9 20 87 05 da 7d 70 b9 c1 0e 87 05 af 07 87 05
       1.2707428e-35 -0.00022935067 1.2700759e-35 1.2698161e-35
0000b0 65 6c 34 3c 8e 8b 86 85 fd 20 7e 3c 1f 8f 4c 3c
       0.011012171 -1.2652564e-35 0.015510795 0.012485295
0000c0 5e bf 42 bd bc 15 87 05 c4 3c f8 3b 13 2f 96 3c
       -0.047545783 1.2703323e-35 0.007575603 0.018332994
0000d0 b6 d5 22 39 ea bf a3 bc 9b 29 2c bd 00 81 87 05
       0.00015529137 -0.019988973 -0.042031866 1.2742726e-35
0000e0 41 51 50 ba 97 f7 86 85 80 8c 10 3d 3e 00 e9 3c
       -0.0007946678 -1.269225e-35 0.03529024 0.028442498
0000f0 b0 d8 88 b8 94 b4 86 05 2b a7 dc 3c 19 8e 87 85
       -6.5253465e-05 1.2667633e-35 0.02693518 -1.2747537e-35
000100 63 f0 86 05 06 fd e2 b2 fd 78 40 3b ea 24 86 85
       1.2689604e-35 -2.6424924e-08 0.002936899 -1.261486e-35
000110 0b a8 86 85 77 dc 96 bc ad 62 87 05 4f 58 a7 3b
       -1.2663029e-35 -0.018415673 1.2731587e-35 0.0051069628
000120 1c a5 28 87 5b be 86 05 58 f5 4d bc b2 41 86 85
       -1.2687437e-34 1.2671225e-35 -0.012570702 -1.2625432e-35
000130 0d c7 85 bd 72 9a 9c ba 6e c7 86 85 5e f3 86 85
       -0.065321065 -0.0011947884 -1.2674558e-35 -1.2690698e-35
000140 d3 4d e4 3c 00 30 87 85 b9 74 b3 bc 45 8b 87 05
       0.02786914 -1.2712971e-35 -0.021906244 1.2746499e-35
000150 df a7 86 05 b1 e8 0c 3c 09 14 ac bc a0 93 87 05
       1.2662966e-35 0.0086004 -0.021005647 1.2749568e-35
000160 cd f5 bb bb 46 39 42 3c 38 01 f9 3b 79 0b 87 85
       -0.005736089 0.011854475 0.0075990222 -1.2699553e-35
000170 41 93 a8 3b 97 3c 86 85 45 e8 7b ba 5c 71 0f 3c
       0.005144507 -1.2623557e-35 -0.0009609501 0.008755054
000180 74 cf 8b ba 19 24 87 05 46 5a 86 85 ca da 14 bd
       -0.0010666684 1.2708599e-35 -1.263446e-35 -0.036341466
000190 98 b2 ae 3d f2 77 49 3d f7 83 8e bd 3a 50 86 05
       0.08530158 0.049186654 -0.06958764 1.263077e-35
0001a0 19 19 a1 3a 94 18 87 05 db 09 87 3c 16 50 1a bb
       0.0012290805 1.2704368e-35 0.016484192 -0.002354627
0001b0 49 39 1b 3d a1 0e e8 bb 09 1d 0f 3c 29 0a 31 3d
       0.03789643 -0.007081822 0.00873495 0.04322258
0001c0 ea e9 14 3c 60 a0 72 3c fd f6 b3 3c c0 1b 87 85
       0.009088973 0.014808744 0.02196836 -1.2705533e-35
0001d0 85 01 14 3c b7 34 a0 3d 79 8e 87 05 89 0e 0d 3c
       0.009033565 0.078225546 1.2747675e-35 0.0086094225
0001e0 07 72 99 bc 0f be a5 3b f6 43 7e bb 22 e7 86 85
       -0.01873113 0.005058057 -0.0038797832 -1.2686204e-35
0001f0 c6 e5 86 05 25 85 bb bd 93 b1 14 3d fa d1 de 3c
       1.2685705e-35 -0.09156255 0.03630216 0.027199734
000200 d3 9d 2b bd 3d 84 87 05 0d f3 cc 3d 99 f6 86 05
       -0.04189856 1.2743916e-35 0.10007296 1.2691885e-35
000210 e2 e1 b8 bd e2 de f6 3b c8 9b 9d 3d ab 17 74 3b
       -0.09027459 0.007533894 0.076957285 0.0037245553
000220 f5 2d 82 bd b0 d7 86 85 66 0f 08 3a 53 54 7f 3c
       -0.06356422 -1.268053e-35 0.0005190283 0.015584069
000230 17 8c 86 05 7a 77 a7 3b b0 52 87 05 50 c9 39 bd
       1.265276e-35 0.0051106783 1.2725714e-35 -0.045358002
000240 fa 32 c4 3c e7 31 86 85 a0 ec 15 bd d6 15 74 bd
       0.023950089 -1.261963e-35 -0.036602616 -0.059591137
000250 dc c5 87 3c 81 38 87 85 a9 e3 1a 3c 7e c9 93 bc
       0.016573839 -1.2716095e-35 0.0094536925 -0.018040415
000260 5d 19 28 3d 4d 5f 3f b9 41 ed 8d bc 98 81 87 05
       0.041039813 -0.00018250682 -0.017325046 1.2742944e-35
000270 50 a4 6a bc 68 86 87 05 2e ff 4f 3d ba 8c 41 3c
       -0.014321402 1.2744712e-35 0.050780468 0.011813337
000280 a6 19 6d bb 3b 24 87 85 df 99 b8 bd 17 d5 1f 3c
       -0.0036178618 -1.2708648e-35 -0.090137236 0.009755394
000290 8b 92 87 05 6c a1 65 3d 3c 64 00 bd 95 6e e2 bc
       1.274917e-35 0.056062147 -0.03134559 -0.02764062
0002a0 2e 5d 86 85 af 81 89 bd 45 83 86 05 1c 28 21 bc
       -1.2635528e-35 -0.06714188 1.264952e-35 -0.009836223
0002b0 da f9 5a bb cf 4b d5 3d 30 c0 ac bd 9b 2c 79 bd
       -0.0033413083 0.1041485 -0.08435094 -0.060833555
0002c0 1d fd 52 3d c8 ef 9d 3d 60 a2 86 05 ad 09 e8 bc
       0.05151092 0.0771175 1.2660947e-35 -0.028324926
0002d0 e5 67 70 3d f6 99 87 85 25 9c bc bc da 29 86 05
       0.05869283 -1.2751895e-35 -0.023023674 1.2616673e-35
0002e0 3c 44 86 05 2d 0c 79 ba e5 bd 4e bc 77 66 87 05
       1.2626365e-35 -0.00095004105 -0.012618517 1.2732979e-35
0002f0 10 18 a0 3d f8 e3 4a 3d d1 79 4e 3c 28 88 87 85
       0.078170896 0.049533814 0.0126022855 -1.2745355e-35
000300 d0 13 46 bd 51 16 87 05 f0 1b 95 3c d1 5f 19 bd
       -0.04835874 1.2703537e-35 0.018201798 -0.037444893
000310 6d 53 d4 3b 0a 42 86 05 db c2 86 05 86 a5 82 3d
       0.0064796717 1.2625558e-35 1.2672878e-35 0.06379227
000320 84 df f1 3c da 4a 90 3d 41 88 97 3b 68 5b 86 05
       0.029525526 0.07045527 0.004624397 1.2634877e-35
000330 78 f2 eb bb 08 7d 86 05 ff 11 a1 ba 96 fe 5c bb
       -0.0072005354 1.2647229e-35 -0.0012288688 -0.003372108
000340 4c bf 31 3d ff 51 2f bc 2e c5 a3 bc 90 8b 1c bd
       0.043395326 -0.010700702 -0.019991484 -0.038219035
000350 78 54 15 3c 94 e1 b2 3d c4 f8 1d 3c 78 1f 87 85
       0.009114377 0.08734432 0.00964183 -1.2706899e-35
000360 b3 24 ef 3b 1d 2f 68 3d 62 cb 86 05 43 37 8b bd
       0.007298076 0.056685556 1.267601e-35 -0.0679765
000370 fc e9 8c bd e0 13 a6 3b 91 21 b9 bb 16 34 86 85
       -0.068805665 0.0050682873 -0.0056497534 -1.2620433e-35
000380 91 2d 86 05 69 b2 c7 3d f1 3e 78 3d 96 9e 1b 3d
       1.2618038e-35 0.09750826 0.0606069 0.037993036
000390 b2 42 6d 3d 6e 46 87 05 8c 44 88 3c 8a d6 86 05
       0.057924934 1.2721211e-35 0.016634248 1.2680109e-35
0003a0 f3 aa 93 3d db 6d 1b 3d bc 0d 2f bd 0f 84 62 3b
       0.0721034 0.037946563 -0.042737707 0.0034563576
0003b0 e2 d2 c6 bd 00 95 86 85 06 00 2a 3d e4 91 bb 3d
       -0.097081915 -1.2656033e-35 0.04150393 0.09158686
0003c0 61 8e 87 05 01 96 ac 3b 80 87 87 05 74 47 a6 3d
       1.2747641e-35 0.0052669053 1.2745114e-35 0.08119097
0003d0 2d bc a0 3c 91 df 86 85 4e 0f 3e bd 06 49 8a 3d
       0.01962098 -1.2683425e-35 -0.046401314 0.06752209
0003e0 a1 43 52 3d dc 7f 87 85 b6 a9 15 3c 81 93 b8 3c
       0.051334027 -1.2742307e-35 0.0091347005 0.022531273
0003f0 83 ee 39 3d 8c 9f e7 bc cb d9 0c 3d 08 8d 86 05
       0.045393478 -0.02827432 0.03438739 1.2653106e-35

block3.bias f4 [100]
000000 63 9d c3 3c 04 e0 11 3e 48 3b 65 3d d7 6e 86 85
       0.023878759 0.14245611 0.055964738 -1.2642016e-35
000010 e9 88 cd 3b 8e 67 86 05 2d 8c 86 85 27 fa e5 3d
       0.0062724245 1.263934e-35 -1.2652792e-35 0.112293534
000020 5e 08 d4 3c 30 17 9c 3b e3 98 86 85 a2 6b 87 05
       0.025882896 0.0047635064 -1.2657461e-35 1.2734877e-35
000030 de a2 13 be c2 da 86 85 20 f1 86 85 7e 7b 86 85
       -0.14417598 -1.2681658e-35 -1.2689875e-35 -1.2646663e-35
000040 00 c5 86 85 54 db 21 3d 82 50 23 be 55 7b 0e be
       -1.2673666e-35 0.03951581 -0.1594868 -0.13914235
000050 c9 39 e4 bc 6f 89 13 3d 09 55 08 3c 98 2b 86 85
       -0.027859585 0.03601974 0.008321055 -1.2617313e-35
000060 e4 23 ce 3b 45 34 87 05 0e 84 90 3d cf 52 86 85
       0.0062908996 1.271454e-35 0.070564374 -1.2631719e-35
000070 96 7c 96 bc 7e 09 81 3b 80 76 86 85 d2 64 86 85
       -0.018369954 0.003937899 -1.264483e-35 -1.2638335e-35
000080 6c 98 58 3c 5f d7 ce 3c 40 49 86 85 c0 82 35 3e
       0.013219934 0.025249181 -1.2628207e-35 0.17725658
000090 02 9d d9 3b af c2 b4 3c f0 d5 23 3a 42 32 64 3d
       0.0066410312 0.022065489 0.0006249836 0.055711992
0000a0 88 1c 13 3e 0b c3 86 05 62 7a 76 3d 0f 9b 20 3b
       0.14366353 1.2672947e-35 0.060175307 0.0024506485
0000b0 b6 96 f2 bb f7 d8 70 3d b8 8f 86 85 94 89 87 85
       -0.00740322 0.058800664 -1.2654093e-35 -1.2745877e-35
0000c0 1e f2 19 3e 6d b7 2d bd 80 6f 86 85 5b ca 58 3c
       0.15033767 -0.042411257 -1.2642258e-35 0.013231839
0000d0 26 c0 f2 bd b3 13 f2 3d 57 01 d3 3d 9e 07 ee 3d
       -0.11853056 0.118201636 0.1030299 0.116225466
0000e0 1e 47 a0 36 8d 53 87 85 9d c6 bd 3a 1f 37 06 3e
       4.7766507e-06 -1.272603e-35 0.0014478747 0.13106965
0000f0 cb bb 41 3c 01 10 f9 bd db f0 3e 3b 7f 2f 75 3d
       0.0118245585 -0.12161256 0.002913526 0.05985975
000100 f0 52 54 3d 7c bd 14 be 6a 97 34 3e e9 24 c7 3b
       0.051836908 -0.14525408 0.17635885 0.006077398
000110 bd 05 4d 3d e4 37 86 05 56 2a 16 3d ee 37 c8 bc
       0.0500543 1.262183e-35 0.03666147 -0.024440732
000120 54 c8 82 bd da 32 86 05 e9 ad 7e 3c d8 32 2a be
       -0.06385866 1.261998e-35 0.015544393 -0.16620958
000130 ef 1e 19 3d 96 e7 1f be 20 52 86 85 7a b3 a2 3b
       0.037383016 -0.15615687 -1.2631467e-35 0.004965243
000140 79 c2 bf 3d 9a 1c 87 85 10 15 87 85 30 24 1e bd
       0.093632646 -1.2705846e-35 -1.2703076e-35 -0.03860873
000150 28 4f 71 3c 67 8a 87 85 0c 82 86 05 a4 b1 98 3c
       0.014728345 -1.274618e-35 1.2649071e-35 0.018639393
000160 10 d0 fc 3c a1 5e 87 85 30 11 87 85 89 4e 87 85
       0.03086093 -1.27301e-35 -1.2701653e-35 -1.2724188e-35
000170 aa 9c 81 3c 77 3a 87 85 f2 f2 28 3b 3f 5c 86 85
       0.015821774 -1.2716816e-35 0.0025779572 -1.2635185e-35
000180 d8 37 b4 bc 6a 1f 87 85 40 74 1e bd 87 a3 fc 3c
       -0.021999285 -1.2706879e-35 -0.038685083 0.030839695

predict.weight f4 [1, 100]
000000 68 cd a2 bc 19 1c 5b 3d ba bd 6f 3d 35 f3 86 85
       -0.019873336 0.053493593 0.058530547 -1.269064e-35
000010 b6 7f 19 b8 cd b4 86 85 05 75 87 05 f7 c7 96 3d
       -3.6596983e-05 -1.2667715e-35 1.2738325e-35 0.07362359
000020 25 2b 82 3d d9 a9 1d 3a cb 95 87 05 a2 7e 86 85
       0.063558854 0.0006014384 1.2750364e-35 -1.2647817e-35
000030 d9 87 9e bd 60 e3 86 05 af 8e 87 85 ec 4a 86 05
       -0.07740755 1.2684824e-35 -1.2747753e-35 1.2628821e-35
000040 b0 71 86 05 37 6f 32 3b 4b 66 28 bd 7b 9f f0 bb
       1.2643062e-35 0.0027226934 -0.04111318 -0.0073432303
000050 55 22 b3 bc 13 bf de 3b ee 0e 49 3d c0 27 86 05
       -0.021866957 0.00679768 0.049086504 1.2615901e-35
000060 c1 c4 91 3c 8c 6a 87 85 9d 7c 8d 3a 8f fd 86 85
       0.017794015 -1.2734478e-35 0.0010794584 -1.2694442e-35
000070 7e e0 08 bd eb fb 65 3a 38 97 87 05 e2 3b 86 85
       -0.033417217 0.00087731954 1.2750888e-35 -1.2623297e-35
000080 63 6a 30 bd 0f eb f4 b9 18 79 87 05 f0 7b 78 3d
       -0.04307021 -0.0004671444 1.2739822e-35 0.06066507
000090 24 ee 84 3b 24 01 d9 ba 35 0e 0a 3a 9c dd cb 3c
       0.004056709 -0.0016556126 0.0005266399 0.024885945
0000a0 94 8c 3f 3b bf 68 86 05 a9 bb 5d 3d 7f d8 2a 3b
       0.0029228078 1.2639777e-35 0.054134045 0.0026068983
0000b0 a7 66 09 3d 0b 47 89 3c 64 d8 86 85 9e 8e 87 85
       0.033545163 0.016757509 -1.2680789e-35 -1.2747728e-35
0000c0 ec 81 eb 3c c3 83 8d bd c8 a9 86 85 66 c7 76 bd
       0.028748475 -0.06909897 -1.2663667e-35 -0.060248755
0000d0 c8 77 7c bd 96 11 01 b9 23 89 a9 3d ac 3b 47 3d
       -0.06163767 -0.0001230895 0.0827811 0.048640892
0000e0 a9 0c d3 39 f6 1c 87 85 22 85 17 3a 29 a5 90 3b
       0.0004025449 -1.2705978e-35 0.0005780031 0.00441422
0000f0 73 35 04 3a b5 cd a2 bd b2 95 8f 39 b0 62 23 3c
       0.0005043365 -0.07949392 0.00027386617 0.009972259
000100 e5 83 2b 3c c2 d7 c3 bd 1a 62 ad 3d 26 08 05 bd
       0.010468458 -0.09562637 0.08465977 -0.032478474
000110 d8 df 8f 3d b1 1e 87 05 48 7d d0 3a d6 0e 9e bd
       0.07025117 1.2706613e-35 0.0015906477 -0.077176735
000120 6d f6 47 bb dc 87 86 85 bc 51 ad 3c 90 42 4d bd
       -0.0030511871 -1.2651206e-35 0.021157138 -0.050112307
000130 5f c2 b8 bd c2 f7 0a bd 38 55 87 85 29 46 0b 3c
       -0.09021448 -0.033927687 -1.2726643e-35 0.008500614
000140 0b 95 c1 bd 02 43 86 85 83 66 86 05 a1 ba ac bd
       -0.09452256 -1.2625914e-35 1.2638956e-35 -0.08434034
000150 13 9d 5b 37 02 cf 86 85 1e 62 86 05 5d b4 ed bc
       1.3089989e-05 -1.2677342e-35 1.2637342e-35 -0.029016668
000160 db 57 ed 3c aa 74 86 05 65 75 86 05 5f 33 86 85
       0.028972557 1.2644155e-35 1.2644423e-35 -1.262017e-35
000170 79 43 2a 3d 30 96 86 05 a5 67 b0 3a bd 32 87 05
       0.041568253 1.265647e-35 0.0013458623 1.2713977e-35
000180 63 f9 59 bd b8 26 86 05 ff 54 ba bd 2c 23 61 bd
       -0.05321635 1.2615522e-35 -0.09098243 -0.054965183

exp_avg f4 [100, 7]
000000 72 63 01 80 c4 61 01 80 32 62 01 80 ec 61 01 00
       -1.2751e-40 -1.26907e-40 -1.27061e-40 1.26963e-40
000010 52 60 01 80 c0 60 01 80 d2 62 01 00 7e 4a bc c0
       -1.26389e-40 -1.26543e-40 1.27286e-40 -5.8840933
000020 66 af b0 ba 2b 5d 26 3a 8c c2 c7 38 a0 10 da ba
       -0.0013480007 0.00063462806 9.5252966e-05 -0.0016637035
000030 f2 b3 75 bb 06 74 8b ba fc 2c 39 c3 ef 73 77 bd
       -0.003749129 -0.0010639436 -185.17572 -0.060413297
000040 4a a5 e7 3c 3e 3e be 3b 73 79 4a bd 47 f8 ed bd
       0.028277058 0.0058057597 -0.04943223 -0.11619621
000050 45 5e 09 bd 94 f2 15 bf d0 3a d2 b6 ee c3 48 38
       -0.033537168 -0.5857327 -6.2653344e-06 4.786619e-05
000060 d8 c8 46 34 97 42 de 38 52 a3 d2 b8 f8 a9 8c b7
       1.8513254e-07 0.00010598188 -0.00010044001 -1.6768448e-05
000070 bd 86 5c 42 88 d6 55 3c 4a 3f c3 bb 98 89 78 ba
       55.13158 0.0130516365 -0.0059584724 -0.0009480952
000080 1a 1e 87 3c cc fa 13 3d 64 a9 28 3c 68 17 03 41
       0.016493846 0.03612785 0.010294292 8.193214
000090 c9 41 09 3b e9 31 6c ba 84 ea 1d b9 bd 17 39 3b
       0.0020943752 -0.0009010123 -0.0001506005 0.002824291
0000a0 cc 48 bd 3b c2 97 da 3a 5c c3 e9 3f 4e 88 0f 3a
       0.0057765003 0.0016677307 1.8262744 0.0005475328
0000b0 4b 52 5b b9 9d bc 21 b8 5d aa 59 3a dd 2b c5 3a
       -0.00020916124 -3.856105e-05 0.0008303279 0.001504298
0000c0 54 52 e7 39 a4 57 9c c0 d0 02 94 ba 6a 3f 11 3a
       0.00044121093 -4.8856983 -0.0011292342 0.00055407605
0000d0 b6 17 64 38 ca cf b8 ba 1a 64 4a bb 93 b5 67 ba
       5.438152e-05 -0.0014100012 -0.003088242 -0.00088390074
0000e0 91 e9 4d 3b 78 43 c9 38 d2 2b dc b7 93 9a a7 37
       0.0031419734 9.596994e-05 -2.624645e-05 1.997993e-05
0000f0 ca f6 3d 39 9c 51 4d 39 0d 22 a4 38 81 34 e2 40
       0.0001811638 0.00019580725 7.826472e-05 7.068909
000100 00 81 e3 3a 6a f1 4d ba df 89 fc b8 f0 2f 15 3b
       0.001735717 -0.0007856103 -0.00012041977 0.0022764169
000110 60 a9 9c 3b f6 9c b3 3a 02 d6 a8 c2 d6 7a 10 bd
       0.0047809333 0.0013703394 -84.417984 -0.035273395
000120 f4 8d 83 3c c9 d9 c6 3b 02 34 9e bc af dc 4e bd
       0.0160589 0.0060684425 -0.019311909 -0.05050343
000130 da cf 1a bc 5a e5 b7 40 ae 74 c0 3a 47 64 26 ba
       -0.00944897 5.746747 0.0014683211 -0.000634734
000140 a7 69 e6 b8 16 a8 02 3b c4 9d 84 3b a4 e9 97 3a
       -0.00010986934 0.0019936613 0.0040471274 0.0011590016
000150 88 4f ea c0 1f b1 e4 ba 44 1a 50 3a 5e 9c 04 39
       -7.3222084 -0.0017447806 0.0007938484 0.00012646752
000160 d4 d4 11 bb 4c bd 9d bb a8 b0 b3 ba b5 95 0b c1
       -0.00222521 -0.0048138257 -0.0013709264 -8.72405
000170 ea 96 0f bb f8 d3 7a 3a 9c 9c 1f 39 89 53 3e bb
       -0.002191002 0.0009568329 0.00015221763 -0.002904149
000180 82 f5 c5 bb 8b 96 e4 ba 53 e1 83 c0 30 cf 82 ba
       -0.0060412297 -0.0017439885 -4.1212554 -0.000997996
000190 b0 e1 e8 39 4b da b2 38 48 b8 a9 ba ce bd 35 bb
       0.0004441864 8.528362e-05 -0.0012948597 -0.002773154
0001a0 2e 90 4d ba 2c 63 01 80 de 60 01 80 2e 61 01 80
       -0.0007841614 -1.27412e-40 -1.26585e-40 -1.26697e-40
0001b0 e2 61 01 00 16 60 01 80 00 62 01 80 32 62 01 80
       1.26949e-40 -1.26305e-40 -1.26991e-40 -1.27061e-40
0001c0 38 3b 01 c1 87 1f de ba de 16 61 3a db 61 f4 38
       -8.076958 -0.0016946652 0.00085864763 0.00011653054
0001d0 c0 c8 fd ba e8 dc 9b bb 94 e8 ad ba fa 26 e2 c0
       -0.0019362196 -0.0047565587 -0.0013268166 -7.067258
0001e0 29 f1 c3 ba 78 bb 3d 3a eb 62 00 39 50 61 e0 ba
       -0.0014949191 0.0007237713 0.00012243881 -0.0017118845
0001f0 2f 22 8b bb fa 7c 9a ba cc 98 84 bf 12 81 b3 b9
       -0.0042460184 -0.0011786513 -1.035913 -0.00034237705
000200 c4 ff f5 38 59 e5 ed 37 e6 a3 07 ba ba 80 6e ba
       0.000117301504 2.83594e-05 -0.0005174264 -0.0009098161
000210 50 94 8c b9 ce ee 8b b5 a0 85 64 32 01 fd 89 b3
       -0.00026813382 -1.0425808e-06 1.33017295e-08 -6.425581e-08
000220 22 79 b0 b3 74 5a 92 35 8e 2f d6 35 14 b4 41 35
       -8.2176726e-08 1.0904173e-06 1.5958083e-06 7.216015e-07
000230 c1 fa ec 3f 17 50 05 3a 56 5d 55 b9 84 7b 1a b8
       1.8514024 0.00050854817 -0.00020348033 -3.6831494e-05
000240 7e 63 3a 3a 36 63 b7 3a 27 bb d7 39 ec 4f 27 41
       0.00071101624 0.0013991359 0.00041147435 10.457012
000250 36 d5 18 3b 47 cc 90 ba 3b f7 34 b9 87 87 38 3b
       0.0023320443 -0.0011047208 -0.00017258238 0.0028156952
000260 a2 c3 d5 3b 76 95 f0 3a fa bf 9a 40 12 21 94 3a
       0.0065235654 0.001835509 4.8359346 0.001130136
000270 dd 56 0d ba b8 fd 8b b8 b8 3c bd 3a a8 58 4d 3b
       -0.0005391667 -6.675295e-05 0.0014437651 0.003133336
000280 3b 68 6c 3a 5a 86 6b 40 5e 87 2b 3a 55 86 c1 b9
       0.0009018217 3.6800752 0.00065433036 -0.00036911914
000290 f4 56 6a b8 fc 04 22 3a 03 36 f8 3a d4 67 05 3a
       -5.587093e-05 0.00061805523 0.0018936995 0.0005089019
0002a0 dc c7 d6 3c 39 df 82 39 72 a3 10 38 c6 6c 16 b8
       0.026218347 0.00024961846 3.4484496e-05 -3.586409e-05
0002b0 68 58 e8 39 cc 85 05 3a af 1d 3d 39 6c 56 8d c0
       0.00044316356 0.00050934847 0.00018035503 -4.4167995
0002c0 c8 e2 61 ba 79 14 f3 39 d0 69 61 38 ac b5 6b ba
       -0.0008616862 0.00046363825 5.3742726e-05 -0.000899161
0002d0 99 ba 1f bb 66 c0 31 ba 36 4b 77 c1 6b 35 71 bb
       -0.0024372695 -0.0006780684 -15.455862 -0.0036805521
0002e0 fd 60 db 3a 89 e0 8d 39 6c 53 99 bb 36 cf 26 bc
       0.0016737279 0.00027060907 -0.004679134 -0.010181239
0002f0 32 bd 3d bb 9a c2 7d c0 e4 70 34 bb 37 06 a2 3a
       -0.002895188 -3.9650025 -0.0027533108 0.0012361471
000300 75 e5 a0 39 98 02 da ba 75 70 77 bb dc 36 56 ba
       0.00030688537 -0.0016632853 -0.0037756239 -0.0008171627
000310 6d 97 42 c0 33 c3 5c ba df f5 a6 39 14 1a a3 38
       -3.0404923 -0.0008421421 0.00031845176 7.777303e-05
000320 ca ee 9a ba 92 ad 19 bb 22 95 31 ba 35 50 f0 bf
       -0.0011820432 -0.0023449403 -0.00067742367 -1.8774477
000330 b6 fe 20 ba ab b8 76 39 bf 02 24 38 cb 14 7c ba
       -0.00061414705 0.00023529182 3.9103204e-05 -0.00096161355
000340 32 63 d7 ba e5 88 01 ba 83 e8 37 42 ba 06 31 3c
       -0.0016432761 -0.00049413583 45.977062 0.010804826
000350 57 96 a1 bb c8 12 6c ba 6d 8b 63 3c 4a 1f f3 3c
       -0.004931252 -0.0009005484 0.013888222 0.029678006
000360 80 20 0d 3c a2 a6 ac b3 64 ce f1 b0 00 94 7d b2
       0.008613706 -8.0396845e-08 -1.7593718e-09 -1.47601895e-08
000370 57 84 87 b2 f4 ca 98 33 29 46 17 34 9d ea c1 32
       -1.577625e-08 7.1149685e-08 1.4088495e-07 2.2574847e-08
000380 7a 60 01 80 d2 62 01 80 10 61 01 80 0a 62 01 80
       -1.26445e-40 -1.27286e-40 -1.26655e-40 -1.27005e-40
000390 d4 60 01 80 42 61 01 80 e8 60 01 80 85 c7 28 b5
       -1.26571e-40 -1.26725e-40 -1.26599e-40 -6.2875216e-07
0003a0 5f 8e a7 b3 37 c0 8d b3 3a 56 a9 b3 28 fb a6 35
       -7.802441e-08 -6.600788e-08 -7.88536e-08 1.244106e-06
0003b0 11 2a 18 35 04 aa 1f 35 29 76 57 bf e5 87 09 b9
       5.668563e-07 5.947952e-07 -0.84164673 -0.00013115963
0003c0 6e fd a3 38 04 99 1a 37 2a ab e1 b8 ed a5 d9 b9
       7.819651e-05 9.214742e-06 -0.00010760718 -0.0004151309
0003d0 aa 49 ed b8 4a 86 b6 c0 da 21 14 bc 7f f5 f4 b9
       -0.00011314762 -5.7038927 -0.009041274 -0.00046722215
0003e0 8d ff 76 ba 86 e1 62 bc 98 a3 b6 bc ca 13 08 bc
       -0.00094222353 -0.013847714 -0.022294804 -0.008305499
0003f0 e5 d1 ff c2 42 c6 19 bd 0a fc 87 3c 5f 2d e5 3b
       -127.90995 -0.03754259 0.016599674 0.006993934

exp_avg_sq f4 [100, 7]
000000 f4 01 00 00 f4 01 00 00 f4 01 00 00 f4 01 00 00
       7e-43 7e-43 7e-43 7e-43
000010 f4 01 00 00 f4 01 00 00 f4 01 00 00 3d 20 36 45
       7e-43 7e-43 7e-43 2914.015
000020 7e 79 d5 37 ce e9 b0 36 81 a7 7e 36 24 95 73 38
       2.5448153e-05 5.272427e-06 3.794645e-06 5.8074613e-05
000030 bc 52 79 39 75 82 07 38 52 0b de 49 d7 98 34 3d
       0.00023777311 3.2308006e-05 1.8189862e+06 0.044091072
000040 bd e2 cd 3b 80 ee a2 3b fb 0d 4e 3d 03 f4 3a 3e
       0.006283133 0.004972279 0.0503063 0.18257146
000050 6b a5 d7 3c f0 99 95 43 c6 ab b6 36 22 f4 1e 35
       0.026323995 299.20264 5.4440197e-06 5.9214847e-07
000060 1c 3b d7 34 88 61 c2 36 e6 79 cc 37 9d c5 5d 36
       4.0089878e-07 5.7930047e-06 2.4375458e-05 3.3046592e-06
000070 17 96 8a 48 8c 81 d0 3a 50 52 01 3a a8 b7 ae 39
       283824.72 0.0015907749 0.0004933225 0.000333247
000080 20 7e b5 3b 4b bb bb 3c 58 d5 4c 3b 08 84 d2 45
       0.005538717 0.022916457 0.0031255092 6736.504
000090 b1 6d 9d 38 4b da 4e 37 12 b6 17 37 46 34 0f 39
       7.506775e-05 1.2329382e-05 9.042693e-06 0.00013657016
0000a0 74 ea 12 3a 0c 9e 9e 38 89 18 4e 43 8f a2 06 36
       0.0005604394 7.5634656e-05 206.09584 2.0062178e-06
0000b0 ce 48 04 35 0c fe a3 34 f6 a7 9e 36 73 0f a0 37
       4.9279777e-07 3.054596e-07 4.72832e-06 1.908068e-05
0000c0 5b c4 2c 36 fa 2f bf 44 1e ca 19 37 d9 b0 36 36
       2.5744291e-06 1529.4993 9.16657e-06 2.7223052e-06
0000d0 f0 34 05 36 1e 0d 01 38 c7 ef 02 39 ba f6 8e 37
       1.9849358e-06 3.0768213e-05 0.0001248709 1.704261e-05
0000e0 9f 98 f0 38 f7 38 05 34 a3 09 b7 32 26 fb 32 32
       0.0001147252 1.2407314e-07 2.1308386e-08 1.0418068e-08
0000f0 d2 84 a0 34 82 2f 5b 35 25 ba 08 34 96 02 59 45
       2.9898962e-07 8.165299e-07 1.2733706e-07 3472.1616
000100 72 85 de 37 ba 64 d4 36 92 ce 9a 36 d8 fa 94 38
       2.6526603e-05 6.3298185e-06 4.6136056e-06 7.103913e-05
000110 2d 84 97 39 54 49 24 38 33 78 1f 49 bb 13 94 3c
       0.00028899443 3.916894e-05 653187.2 0.018075814
000120 28 a4 24 3b 74 66 03 3b 99 0a 91 3c 21 29 7f 3d
       0.0025122259 0.002005008 0.017705249 0.062295083
000130 0c 6c 1b 3c d6 84 09 45 e1 42 97 37 82 09 8b 36
       0.00948621 2200.3022 1.8031746e-05 4.1436297e-06
000140 2d 17 4a 36 86 dd 41 38 a0 72 44 39 83 8a d4 37
       3.0113836e-06 4.6221096e-05 0.00018734718 2.5336869e-05
000150 c1 c5 81 45 fa 55 17 38 ce be fc 36 88 f1 b8 36
       4152.719 3.6081277e-05 7.532398e-06 5.5117453e-06
000160 81 08 b0 38 13 8f b3 39 d3 e4 42 38 8c 47 ce 45
       8.393918e-05 0.0003424814 4.6466314e-05 6600.9434
000170 05 0d 84 38 f5 85 4a 37 2d a4 12 37 83 8b 0c 39
       6.2966756e-05 1.2071328e-05 8.740503e-06 0.00013403413
000180 1b ce 0f 3a 38 8d 9b 38 05 86 bf 44 ac 19 70 37
       0.0005485729 7.41728e-05 1532.1881 1.4311092e-05
000190 bc f8 3b 36 18 07 07 36 c9 da 03 38 0d e2 06 39
       2.8009954e-06 2.0120697e-06 3.1436593e-05 0.00012863446
0001a0 45 a0 91 37 f4 01 00 00 f4 01 00 00 f4 01 00 00
       1.7359978e-05 7e-43 7e-43 7e-43
0001b0 f4 01 00 00 f4 01 00 00 f4 01 00 00 f4 01 00 00
       7e-43 7e-43 7e-43 7e-43
0001c0 cc 6e 9a 45 4b 53 15 38 dc d4 11 37 63 2d d4 36
       4941.8496 3.560194e-05 8.692234e-06 6.323376e-06
0001d0 a6 94 cd 38 8c be d1 39 f0 cf 64 38 79 cf c7 45
       9.80285e-05 0.00040005555 5.4553093e-05 6393.934
0001e0 2b 42 9a 38 9b 76 45 37 05 d8 0a 37 0e ea 02 39
       7.355617e-05 1.176973e-05 8.275737e-06 0.00012484958
0001f0 4f 60 07 3a 32 30 93 38 db 02 86 42 29 5c 7a 35
       0.00051641924 7.018483e-05 67.00558 9.326637e-07
000200 e3 37 79 34 e2 6d f3 33 af cd e5 35 d9 80 e5 36
       2.3210264e-07 1.1335557e-07 1.7121691e-06 6.8397317e-06
000210 af 44 7f 35 ac 41 18 33 16 34 b9 30 3c b2 52 2f
       9.509485e-07 3.5449986e-08 1.3475325e-09 1.916271e-10
000220 58 0a 02 2f fd 9e b6 31 93 b7 7e 32 02 01 42 31
       1.1827106e-10 5.314972e-09 1.4826486e-08 2.8231288e-09
000230 e0 6e a3 43 d7 53 6c 36 22 a5 32 35 7e 31 ef 34
       326.8662 3.5215542e-06 6.655047e-07 4.455323e-07
000240 01 75 e3 36 5a 8e e8 37 e6 e0 7c 36 4d 80 13 46
       6.7787482e-06 2.7722843e-05 3.7681834e-06 9440.075
000250 5d cf b2 38 3d 9e 8e 37 75 8d 4e 37 d2 d2 44 39
       8.526326e-05 1.7001405e-05 1.2311492e-05 0.00018770553
000260 d0 9a 49 3a 54 2e db 38 88 02 20 45 05 0a d9 37
       0.00076906104 0.00010451363 2560.1582 2.5873082e-05
000270 dc 9b 98 36 54 60 5b 36 81 8f 54 38 2c 29 5b 39
       4.5480974e-06 3.2689613e-06 5.0678387e-05 0.00020900805
000280 1f 24 ed 37 19 f2 d5 44 16 3c 92 37 8b d3 4a 36
       2.8269422e-05 1711.5656 1.7432536e-05 3.022348e-06
000290 d3 94 0e 36 5c da 0a 38 2c 99 0f 39 9c 39 9c 37
       2.1246276e-06 3.3105127e-05 0.00013694604 1.8623476e-05
0002a0 4e 4d cc 39 57 36 0c 35 ed 66 93 34 1f 0c 2b 33
       0.0003896751 5.223314e-07 2.7455772e-07 3.9825064e-08
0002b0 04 16 8f 34 5e b8 51 35 7e 32 95 34 07 d9 10 45
       2.6651844e-07 7.8126857e-07 2.779015e-07 2317.5642
0002c0 1c 70 c8 37 8f 79 87 36 80 b2 43 36 e3 40 3c 38
       2.3894063e-05 4.037465e-06 2.9161165e-06 4.4883123e-05
0002d0 30 9e 42 39 9d 6b d3 37 86 6c 9e 46 8d b9 43 39
       0.00018560211 2.5203271e-05 20278.262 0.00018665772
0002e0 14 9a 19 38 de 10 e0 37 57 3f d6 39 c9 41 db 3a
       3.662154e-05 2.6710735e-05 0.00040864453 0.001672798
0002f0 3a 87 6d 39 af 98 d8 45 23 bc e6 38 cf 98 8b 37
       0.00022652457 6931.0854 0.00011002298 1.6641248e-05
000300 ca 0a 54 37 c1 65 23 39 12 56 0c 3a 48 ef a1 38
       1.2638697e-05 0.00015582798 0.00053534016 7.721648e-05
000310 11 38 f3 44 e5 77 dc 37 bc 8c 72 36 fa 8e 2a 36
       1945.7521 2.6281874e-05 3.6142728e-06 2.5415197e-06
000320 98 70 24 38 b6 01 2a 39 10 63 b7 37 26 3e 57 43
       3.9205508e-05 0.00016213101 2.186143e-05 215.24277
000330 49 00 28 36 f4 d8 0e 35 f8 bb b5 34 0d 2d b3 36
       2.5034117e-06 5.321483e-07 3.3850642e-07 5.3398603e-06
000340 0a d6 b3 37 1d ed 3f 36 4c 69 44 48 e6 88 8f 3a
       2.1438133e-05 2.8599236e-06 201125.19 0.0010950833
000350 98 06 b4 39 d2 9e 70 39 53 e4 7b 3b 72 15 84 3c
       0.00034337188 0.00022947349 0.0038435652 0.016123507
000360 c5 89 0f 3b 23 bb 7f 30 8d 49 e1 2d 3c c1 b4 2c
       0.0021902185 9.3034397e-10 2.5612202e-11 5.137361e-12
000370 7f 41 48 2c 3e de e8 2e b8 66 d7 2f 4b 75 7c 2e
       2.8458067e-12 1.0589617e-10 3.9181258e-10 5.7402343e-11
000380 f4 01 00 00 f4 01 00 00 f4 01 00 00 f4 01 00 00
       7e-43 7e-43 7e-43 7e-43
000390 f4 01 00 00 f4 01 00 00 f4 01 00 00 ed 30 0c 33
       7e-43 7e-43 7e-43 3.2640788e-08
0003a0 a7 aa a4 30 de a1 41 2f 9f f5 ea 2e d3 70 a4 31
       1.1981073e-09 1.7610755e-10 1.0684719e-10 4.785855e-09
0003b0 5c 9e 69 32 6f 12 32 31 17 cf 83 43 5c 84 90 36
       1.3598392e-08 2.5912887e-09 263.6179 4.306943e-06
0003c0 2d 42 fd 34 de 8f b8 34 e9 b6 a8 36 bb 46 b1 37
       4.7173071e-07 3.4377348e-07 5.0280837e-06 2.113298e-05
0003d0 3e 57 3f 36 97 3c 39 45 e5 99 94 3b 46 11 29 39
       2.8512e-06 2963.7869 0.004534947 0.00016123531
0003e0 35 31 45 39 99 39 8c 3a 31 3b 61 3b e7 63 0f 3a
       0.00018805715 0.0010698318 0.0034367556 0.00054699037
0003f0 2b a3 2d 49 65 0d a3 3c 13 7f 31 3b b0 3b 0e 3b
       711218.7 0.019903848 0.0027083799 0.0021703057

exp_avg f4 [100]
000000 20 60 01 00 9c e7 0c ba 73 cb 98 bc d0 ad 6b b6
       1.26319e-40 -0.00053750887 -0.0186517 -3.51189e-06
000010 a4 58 ab 3b 08 8b 5e 3a 71 94 6b 39 55 61 e9 b9
       0.0052290726 0.0008489345 0.00022466645 -0.0004451374
000020 be a7 dd 37 48 db 37 3a e5 8e 0c bc c6 11 1e 3a
       2.6423364e-05 0.00070135714 -0.008578991 0.000602987
000030 19 f3 37 ba 10 a6 67 ba df ec d5 b9 16 60 01 80
       -0.00070171204 -0.0008836696 -0.0004080301 -1.26305e-40
000040 f3 22 30 ba 5f e7 1b ba 83 17 10 b9 cb b6 30 33
       -0.0006719075 -0.0005947258 -0.00013741669 4.1144443e-08
000050 d7 5d 55 39 36 df 73 3a 8a fa ee 39 1a 0b 86 39
       0.00020348221 0.00093029754 0.00045581564 0.00025566743
000060 c2 35 a8 38 a4 9f ad b9 f0 47 c1 ba 16 3a 1b ba
       8.0208774e-05 -0.00033116073 -0.001474617 -0.0005921436
000070 02 2c b5 b9 4f 17 86 b9 de 37 8f 3b 6b 5a 05 32
       -0.000345558 -0.00025575838 0.0043706736 7.762178e-09
000080 40 63 01 80 fc eb af 33 8e 59 54 b8 b9 4b 77 bb
       -1.2744e-40 8.191998e-08 -5.0628143e-05 -0.0037734343
000090 0a ac 37 bc fa 62 01 00 04 d1 50 3a 7a 09 0d 3a
       -0.011210451 1.27342e-40 0.0007965716 0.0005380135
0000a0 88 db b0 39 88 cb 06 ba a0 c3 93 b9 36 81 0c 39
       0.000337329 -0.0005142023 -0.00028183777 0.00013399575
0000b0 15 a1 c1 37 48 f9 2c bc 70 fd f2 39 0c 60 01 80
       2.3082403e-05 -0.01055748 0.00046346663 -1.2629e-40
0000c0 a3 a2 a1 39 e8 15 b7 ba 60 11 d6 b6 4e 07 02 38
       0.00030829487 -0.001396832 -6.3797197e-06 3.100122e-05
0000d0 4e 8c 45 3a 55 4f 91 3b 31 c0 d1 b8 8e 60 01 00
       0.00075358606 0.004434506 -0.00010001695 1.26473e-40
0000e0 fb 88 ec 32 20 f8 81 3a 63 15 8c 39 40 6c c1 39
       2.7536307e-08 0.0009915866 0.00026718815 0.0003689248
0000f0 51 85 ca 38 81 c0 02 ba 0f 42 f5 38 76 6e 3b bc
       9.656943e-05 -0.0004987792 0.00011694815 -0.01143991
000100 b2 db eb b9 1b 15 85 3b e5 ad 22 3a 16 54 5d 3a
       -0.0004498638 0.004061354 0.0006205722 0.0008443011
000110 00 24 94 ba c6 0c a1 b9 fa c1 a7 37 f8 7a a8 33
       -0.0011302233 -0.0003071783 1.9998279e-05 7.8454775e-08
000120 68 2f d3 37 c2 b9 87 39 a8 d1 a7 3a 4c b9 a2 36
       2.5175235e-05 0.00025887607 0.0012803571 4.8495476e-06
000130 2e 70 05 39 24 3d 7c 34 2f d8 d0 38 03 64 20 bc
       0.00012725659 2.3491572e-07 9.95848e-05 -0.00978947
000140 02 f7 62 ba 04 c6 c9 37 d6 30 86 3a 7e 0f 37 3a
       -0.0008658023 2.4053275e-05 0.0010237943 0.00069832045
000150 d6 1c f8 b9 a9 ed 29 33 a5 ac f9 33 8c 71 ee b8
       -0.0004732373 3.956453e-08 1.162637e-07 -0.00011369874
000160 7f ff 92 38 1c 31 02 b8 b2 ef b7 34 90 6b ad b9
       7.0094124e-05 -3.1040152e-05 3.4260808e-07 -0.00033077272
000170 38 c5 3a b9 99 da 0d ba 0e 14 ae 39 be b6 6a b6
       -0.00017811812 -0.0005411297 0.00033202808 -3.4975087e-06
000180 20 e8 05 3b 6c 22 3a ba da e2 95 37 24 61 01 80
       0.0020432547 -0.0007100466 1.786782e-05 -1.26683e-40
