deep_learning/training_checkpoints/20190920-103129_100.pth (torch_old, 255324 bytes, 21 tensors)

block1.weight f4 [100, 6]
-5.6564736e-36 -5.686103e-36 5.7172106e-36 -5.7598122e-36 -5.6525516e-36 5.7166287e-36 0.15746771 -0.92555594
0.22386882 -0.044908147 -0.15937105 0.3251156 0.11037841 -0.6156639 0.43242377 0.026972074
-0.040405612 0.18980433 0.39255354 -0.8594835 0.20359603 0.20554514 0.1264345 -0.2038293
0.0017968576 -0.5958055 -0.086818315 -0.123183295 0.34460574 -0.12786268 -0.011973991 0.15402225
-0.05824392 0.20786795 0.042401843 -0.04142605 0.19282751 -0.7397992 0.22174518 0.41599703
0.4584149 0.22753152 0.16373114 -0.5083183 -0.19382076 -0.09123491 0.040979374 -0.31147453
6.607527e-05 -0.7337604 -0.19087297 0.39326087 0.3174946 0.08139199 0.00014042568 -0.975108
0.06677479 -0.09756864 0.45474923 0.15686063 0.27509364 -0.6965487 0.28819585 0.35246983
0.4590865 0.3370572 0.18733458 -1.2130908 0.33399475 0.37695348 0.24757701 0.037702248
-0.0005740372 -0.051823862 -0.061608784 0.08417206 0.13695857 0.130077 0.21667881 1.0274589
-0.41653118 -0.41162 0.17144455 0.2920934 0.07769333 0.60204434 -0.21582015 0.28098193
0.19019885 0.18973157 0.24889468 0.86012214 0.115445375 0.24110073 0.20797043 0.06649411
0.096480615 -0.7367799 0.060815316 0.012054328 -0.019669233 0.38458383 0.33657622 1.1449834
0.068802506 0.22380932 -0.12903151 0.04250349 1.2886039e-07 1.0358068 -0.009903122 -0.09625995
-0.18924779 -0.21092607 0.25833777 0.646139 -0.19272599 0.041015964 -0.1527625 -0.25691637
0.033596255 0.91602486 -0.1579546 -0.006595815 -0.53781945 -0.06453948 0.00209844 -0.26694962
-0.034312937 0.14632906 0.18469754 0.10487305 -5.6844e-36 -5.654842e-36 5.6928867e-36 5.7201005e-36
-5.725609e-36 -5.6565816e-36 -0.0013036066 -0.04616275 -0.05429739 0.0033615255 0.25266957 0.10797088
0.11120613 0.8019925 0.09026145 -0.4243971 -0.3369646 -0.35200015 0.28205487 -0.941354
0.0072160675 0.2633551 0.08619648 0.08425074 -5.714817e-36 -5.7041886e-36 -5.7439498e-36 -5.6655466e-36
-5.6890052e-36 -5.7629475e-36 0.022461614 -0.5362058 -0.22571778 -0.3157248 0.3759015 -0.101403244
-0.049963847 0.06554715 0.0034015202 0.048449807 0.16674699 0.03544315 -5.6433863e-36 -5.7037376e-36
5.743049e-36 -5.634715e-36 -5.675289e-36 -5.7130277e-36 0.23901476 0.62402934 -0.0782842 -0.41082412
0.02056929 -0.29815087 0.40128475 0.44756734 -0.42641348 0.2589779 -0.35429922 -0.13585806
0.38049427 -0.6553048 0.15086009 0.020219838 -0.2149233 -0.059824266 0.09674413 1.1876224
0.26467222 -0.28383693 -0.19499685 0.1617796 -5.7545453e-36 5.6572646e-36 5.7351375e-36 -5.6887954e-36
-5.7231465e-36 -5.741836e-36 2.119442e-05 -0.49278057 -0.007154121 0.1126589 0.20380627 0.18335111
-0.00038776634 -0.237436 -0.03666971 0.10221759 0.22926214 0.03773516 -4.1734176e-05 0.8888552
-0.2093465 -0.26777765 0.005382928 -0.07415928 0.06956801 -0.09807457 0.11764205 -0.21571293
0.14412959 0.04486904 0.36062622 -0.89976007 0.0538333 0.01800558 0.2839295 -0.3107383
0.32450354 0.6507453 -0.32390237 -0.19075172 0.013934125 -0.3987447 5.7568004e-06 1.1028758
-0.2859076 -0.24748224 -0.24190833 0.087211035 0.0015948999 -0.25677314 -0.039251026 0.2512693
00000000: 8b99 f084 2edc f184 e92e f304 cdfe f484
00000010: d66e f084 9328 f304 373f 213e 3cf1 6cbf
00000020: de3d 653e 9bf1 37bd 2a32 23be 8d75 a63e
00000030: 130e e23d 269c 1dbf a666 dd3e 8af4 dc3c
00000040: 5b80 25bd 115c 423e c7fc c83e 1c07 5cbf
00000050: 7a7b 503e 6d7a 523e 0c78 013e a1b8 50be
00000060: 8984 eb3a b686 18bf cdcd b1bd 8647 fcbd
00000070: 2a70 b03e 6fee 02be 8f2e 44bc 02b8 1d3e
00000080: 2d91 6ebd 56db 543e 8ead 2d3d 5dae 29bd
00000090: 9374 453e 7b63 3dbf 2b11 633e 90fd d43e
000000a0: 5cb5 ea3e 06fe 683e 23a9 273e 2621 02bf
000000b0: f378 46be 5ed9 babd fdd9 273d 9779 9fbe
000000c0: e491 8a38 b9d7 3bbf 3474 43be 7d59 c93e
000000d0: a78e a23e d8b0 a63d 3b3f 1339 aea0 79bf
000000e0: 39c1 883d 11d2 c7bd e4d4 e83e 13a0 203e
000000f0: 13d9 8c3e 0451 32bf 688e 933e ed76 b43e
00000100: 630d eb3e c392 ac3e a3d4 3f3e 8f46 9bbf
00000110: 5c01 ab3e 0c00 c13e d484 7d3e ac6d 1a3d
00000120: fc7a 16ba 4245 54bd 7e59 7cbd 6762 ac3d
00000130: de3e 0c3e e832 053e 0de1 5d3e c683 833f
00000140: 9343 d5be dbbf d2be 298f 2f3e 448d 953e
00000150: ae1d 9f3d 941f 1a3f f5ff 5cbe dddc 8f3e
00000160: 7dc3 423e fe48 423e 3fde 7e3e f730 5c3f
00000170: a06e ec3d 1ce3 763e 33f6 543e 102e 883d
00000180: a197 c53d 9c9d 3cbf 7b19 793d 847f 453c
00000190: 5f21 a1bc 2ce8 c43e b853 ac3e d18e 923f
000001a0: 54e8 8c3d 452e 653e d620 04be 2418 2e3d
000001b0: e05c 0a34 5195 843f b440 22bc f023 c5bd
000001c0: 2cca 41be 01fd 57be d944 843e 5e69 253f
000001d0: f659 45be 5b00 283d c66d 1cbe 8b8a 83be
000001e0: 3a9c 093d 9b80 6a3f dabe 21be b521 d8bb
000001f0: 89ae 09bf 462d 84bd fb85 093b 9fad 88be
00000200: b98b 0cbd 49d7 153e 5a21 3d3e aec7 d63d
00000210: a3c9 f184 c787 f084 0c26 f204 614e f304
00000220: 5c8a f384 b89a f084 c7dd aaba 2715 3dbd
00000230: f166 5ebd 0a4d 5c3b e85d 813e d61f dd3d
00000240: 0ac0 e33d 614f 4d3f ffda b83d 944a d9be
00000250: a086 acbe 5d39 b4be 7f69 903e 93fc 70bf
00000260: c374 ec3b 7bd6 863e c887 b03d a78b ac3d
00000270: d914 f384 1da1 f284 1352 f484 57fc f084
00000280: c8fb f184 f120 f584 6b01 b83c c944 09bf
00000290: 9022 67be aea6 a1be 2976 c03e 81ac cfbd
000002a0: e4a6 4cbd 963d 863d 0aec 5e3b 4e73 463d
000002b0: b9bf 2a3e d62c 113d 090b f084 349c f284
000002c0: 4448 f404 9dac ef84 6d66 f184 5d01 f384
000002d0: 49c0 743e 63c0 1f3f 7753 a0bd 8a57 d2be
000002e0: ed80 a83c 3ba7 98be 3275 cd3e 8c27 e53e
000002f0: de52 dabe c098 843e b566 b5be 601e 0bbe
00000300: 25d0 c23e 0ec2 27bf 117b 1a3e 13a4 a53c
00000310: db14 5cbe 4a0a 75bd c921 c63d 0304 983f
00000320: 1e83 873e 1353 91be 41ad 47be 8da9 253e
00000330: 73c5 f484 28a2 f004 1ef2 f304 7ff9 f184
00000340: 8c6f f384 0f3b f484 acca b137 bc4d fcbe
00000350: 1e6d eabb b6b9 e63d 97b2 503e 65c0 3b3e
00000360: 1e4d cbb9 6c22 73be fa32 16bd 7557 d13d
00000370: b2c3 6a3e 2f90 1a3d bb0b 2fb8 048c 633f
00000380: ee5e 56be 271a 89be 4663 b03b d2e0 97bd
00000390: ac79 8e3d 52db c8bd 51ee f03d dae3 5cbe
000003a0: b596 133e 99c8 373d 00a4 b83e ad56 66bf
000003b0: 4e80 5c3d 7080 933c 355f 913e 1719 9fbe
000003c0: 5425 a63e 3e97 263f 88d6 a5be 6b54 43be
000003d0: f54b 643c 4428 ccbe 8a2a c136 092b 8d3f
000003e0: 7b62 92be fc6b 7dbe d1b6 77be b39b b23d
000003f0: f60b d13a c577 83be afc5 20bd 5fa6 803e

block1.bias f4 [100]
5.7641277e-36 -0.0623861 -0.25573987 -0.53352886 0.00083262235 0.06673886 -0.25048214 -0.320077
-0.2047661 -0.03368268 -0.3843723 -0.42896527 0.005812583 0.13619415 -0.08792581 0.28888658
-0.19789922 0.0032984756 0.4068169 0.31454733 0.4984006 -0.091669105 5.7273297e-36 0.029098563
-0.25692204 0.05508031 -5.6904107e-36 -0.21683045 0.01696243 -5.7178914e-36 0.38293123 0.06439836
0.116008535 -0.024229042 -5.6794353e-36 0.04964024 -0.05346143 0.40535283 -0.35582328 0.09635168
0.3238123 0.3140613 -0.110348865 0.14622018 0.04787807 -0.26689264 -5.759328e-36 0.19051278
-0.36266434 0.19578639 -0.12065784 5.6540844e-36 -5.700209e-36 5.6827457e-36 -0.21899274 -5.650568e-36
0.0250987 0.46809086 -5.6453974e-36 0.41695502 -0.07013167 0.2828644 -0.11844873 0.08582836
0.19108982 0.13982005 0.05482224 0.1447827 0.38194814 -0.14606124 0.35459167 0.4213809
-0.19020367 -0.19297644 -0.11736372 -0.37959892 -5.665739e-36 -0.24693479 0.075057864 -5.627339e-36
-0.083473675 0.43309498 0.081436284 0.06605236 -5.6064986e-36 -0.20497902 -0.052864213 -0.0007935584
0.09668771 0.06762279 -0.25435838 0.19205147 -0.025551416 -0.4146104 0.26107785 0.048263855
-0.29625288 0.08160546 -0.3222677 -0.17219384
00000000: cb2d f504 9188 7fbd 56f0 82be 5995 08bf
00000010: 5744 5a3a 62ae 883d 323f 80be 22e1 a3be
00000020: 34ae 51be daf6 09bd 72cc c4be 56a1 dbbe
00000030: 7b77 be3b 7b76 0b3e 7212 b4bd f1e8 933e
00000040: 18a6 4abe 3d2b 583b 4e4a d03e 590c a13e
00000050: 5d2e ff3e 03bd bbbd 199d f304 1c60 ee3c
00000060: 498b 83be e49b 613d 160b f284 cd08 5ebe
00000070: cbf4 8a3c 5336 f384 900f c43e 4ae3 833d
00000080: e295 ed3d fc7b c6bc 9393 f184 9053 4b3d
00000090: 5ffa 5abd 688a cf3e 782e b6be 0854 c53d
000000a0: baca a53e a5cc a03e 96fe e1bd beba 153e
000000b0: cc1b 443d 27a6 88be 87f9 f484 c815 433e
000000c0: 24af b9be 3a7c 483e 751b f7bd 877f f004
000000d0: c875 f284 9fb7 f104 a23f 60be 3d59 f084
000000e0: ca9b cd3c 9ba9 ef3e ef20 f084 217b d53e
000000f0: 31a1 8fbd 9ad3 903e 3f95 f2bd c7c6 af3d
00000100: 0dad 433e fd2c 0f3e 498d 603d eb41 143e
00000110: b58e c33e 1491 15be 0a8d b53e 3dbf d73e
00000120: c0c4 42be 9e9b 45be 645c f0bd ca5a c2be
00000130: 6ffe f084 79dc 7cbe f0b7 993d 4c5c ef84
00000140: 3ff4 aabd a0be dd3e 11c8 a63d 7646 873d
00000150: 5d79 ee84 05e6 51be 2588 58bd ce06 50ba
00000160: 3504 c63d d17d 8a3d 433b 82be 24a9 443e
00000170: 3451 d1bc d047 d4be ffab 853e 52b0 453d
00000180: 75ae 97be c320 a73d 4600 a5be 9553 30be

block2.weight f4 [100, 100]
-5.7073092e-36 -5.739298e-36 5.669263e-36 -5.7748488e-36 5.6903903e-36 -5.6652758e-36 -5.7246044e-36 -5.6798464e-36
5.6640285e-36 5.759061e-36 -5.6488774e-36 5.7055518e-36 -5.7440208e-36 -5.651799e-36 -5.6725175e-36 -5.693974e-36
5.7307057e-36 5.655633e-36 5.7031856e-36 -5.7594987e-36 -5.721784e-36 5.6451836e-36 5.6471562e-36 -5.6624856e-36
-5.658394e-36 -5.721946e-36 5.678685e-36 5.7810972e-36 -5.7472583e-36 -5.7043482e-36 -5.6822546e-36 -5.7575687e-36
5.7654884e-36 5.750427e-36 -5.699961e-36 -5.6507044e-36 5.678376e-36 5.750275e-36 -5.6978623e-36 -5.745359e-36
5.6702342e-36 -5.6735374e-36 -5.6764162e-36 5.7098304e-36 -5.7546357e-36 -5.770303e-36 -5.7446554e-36 5.676309e-36
5.781286e-36 -5.685301e-36 -5.738359e-36 -5.7622735e-36 5.7626935e-36 -5.645174e-36 -5.7714513e-36 -5.6968486e-36
-5.7054248e-36 5.7652646e-36 5.705614e-36 5.7720285e-36 5.7526124e-36 -5.717561e-36 -5.704479e-36 -5.6879412e-36
5.658172e-36 -5.7354033e-36 5.6694206e-36 5.6516013e-36 -5.7743843e-36 5.6597707e-36 5.7314705e-36 -5.7523836e-36
-5.7462155e-36 5.6495615e-36 -5.779379e-36 -5.6818022e-36 5.7002705e-36 -5.740476e-36 5.69425e-36 5.672685e-36
5.70482e-36 5.6562824e-36 -5.74369e-36 5.63899e-36 -5.6886766e-36 -5.7618426e-36 -5.6923145e-36 -5.7202953e-36
5.7003114e-36 5.6635898e-36 5.6714503e-36 -5.6995864e-36 5.7021564e-36 -5.754715e-36 -5.6472893e-36 -5.7479586e-36
5.6890978e-36 -5.665012e-36 -5.7604278e-36 5.6734327e-36 -5.7309776e-36 0.013934593 0.0024481576 0.000523687
0.020604912 0.005601045 -0.00030858972 0.0021846532 0.08215832 0.033268802 0.001780005 0.02190526
0.012950683 0.008732816 -0.023045147 -0.0058596893 0.010439049 -0.0056624576 -0.0035786573 -0.002677295
0.0024841477 0.04539509 5.761443e-36 0.028139204 0.004469373 0.00090715376 -5.661807e-36 0.004099906
0.0013547379 5.62692e-36 -0.0034129855 -0.007264412 0.0006766536 -0.0066237347 -9.95217e-38 0.036098715
0.04308522 -0.014318393 -0.0065467795 0.0010715077 -0.0028644945 -0.003213838 0.043666564 0.0023586054
6.0217946e-05 0.030464808 5.7471034e-36 -0.002900358 -1.3561783e-05 0.0014496341 0.0017546434 -5.6764277e-36
5.7258614e-36 5.7616457e-36 -0.02520696 5.722829e-36 0.04482826 -0.0052643437 -5.7612482e-36 -0.013015229
0.015720356 0.019822389 -0.0010324741 0.0124211265 -0.0047098366 -0.0076572397 0.016406171 0.004737241
-0.012913472 0.00028282424 -0.005752776 0.008121597 0.0016016478 -0.0033666322 0.021022676 -0.012645642
-5.718028e-36 0.011242739 0.0038665903 5.8069672e-36 0.02637992 -0.0022294053 0.0010191035 -0.0018334695
6.105353e-36 0.0047181104 0.0065665534 0.04561162 0.0042660814 0.027308656 0.016742075 0.0016653904
-0.0073265885 0.004672641 0.0057754884 -0.0063528568 0.0010225183 0.03499436 -0.009951855 0.010753409
-5.7667325e-36 0.00423939 -0.00029921104 0.040008966 0.024278872 -0.0066894563 -0.0032193086 -0.008603269
0.08641051 0.037696503 0.047034547 -0.0039060942 0.053610478 -0.016433945 0.008496624 -0.008256517
2.7543518e-05 -0.01338541 0.002234447 -0.02879072 0.0016777042 0.09252285 -5.7481204e-36 0.0023205907
-0.006368999 -0.006155972 5.739164e-36 -0.00063038693 -0.0014147155 5.1099756e-36 0.013836565 -0.036370024
-0.028338512 -0.013829425 -5.715695e-36 0.052136544 0.06966519 0.00975389 -0.006922484 0.0021879636
0.033522755 -0.0023039125 0.08740244 0.04717893 -0.0006266062 0.024588618 -5.679431e-36 -0.007967714
0.0027447834 -0.017772788 -0.034633297 -5.707676e-36 -5.734871e-36 -5.7745e-36 -0.021180607 -5.6899627e-36
00000000: 18c3 f284 6c1f f484 cf24 f104 89a2 f584
00000010: dd0a f204 64f9 f084 6c7f f384 0d98 f184
00000020: cfeb f004 9ff6 f404 d446 f084 f5af f204
00000030: d952 f484 a466 f084 3f48 f184 e331 f284
00000040: dcc1 f304 6490 f004 3196 f204 63fb f484
00000050: b660 f384 9b1e f004 1634 f004 02db f084
00000060: 74ae f084 7962 f384 678b f104 93e6 f504
00000070: 1a76 f484 daa2 f284 46b2 f184 5fe6 f484
00000080: 9c3c f504 9b98 f404 1473 f284 b95a f084
00000090: 0a88 f104 f396 f404 3a5c f284 6b61 f484
000000a0: 622f f104 5a53 f184 b372 f184 8cde f204
000000b0: 6fc6 f484 0971 f584 c259 f484 8871 f104
000000c0: a1e8 f504 72d3 f184 3215 f484 9a19 f584
000000d0: 2d1e f504 801e f084 8a7d f584 3051 f284
000000e0: 93ae f284 2c3a f504 a3b0 f204 d383 f504
000000f0: 67b0 f404 ba32 f384 47a4 f284 32f0 f184
00000100: 0aac f004 03f5 f384 8626 f104 7d64 f004
00000110: 7a9d f584 72bd f004 30ca f304 e9ad f484
00000120: bf6a f484 474e f004 ddd3 f584 59ad f184
00000130: 7376 f204 402c f484 e434 f204 124a f104
00000140: fda7 f204 7697 f004 3f4f f484 2adb ef04
00000150: 34f8 f184 e914 f584 d11f f284 8050 f384
00000160: e576 f204 08e7 f004 a03c f104 006f f284
00000170: fc8a f204 4cc7 f484 8935 f084 ba7d f484
00000180: cafc f104 85f6 f084 8105 f584 3652 f104
00000190: d2c4 f384 eb4d 643c 4571 203b 0a48 093a
000001a0: a2cb a83c f988 b73b 36ca a1b9 662c 0f3b
000001b0: 9f42 a83d de44 083d 0f4f e93a a972 b33c
000001c0: 1a2f 543c 1614 0f3c 2dc9 bcbc a302 c0bb
000001d0: 8c08 2b3c 238c b9bb e887 6abb 8e75 2fbb
000001e0: 15cd 223b 34f0 393d 8f10 f504 3084 e63c
000001f0: d173 923b 0fce 6d3a 9ed3 f084 8158 863b
00000200: 7691 b13a bc57 ef04 65ac 5fbb 4e0a eebb
00000210: 7461 313a ea0b d9bb 4076 0782 3fdc 133d
00000220: 217a 303d b197 6abc 5e86 d6bb d571 8c3a
00000230: 3eba 3bbb 419f 52bb b6db 323d d592 1a3b
00000240: 8792 7c38 5591 f93c 6a74 f404 ef13 3ebb
00000250: 6a87 63b7 a601 be3a 10fc e53a d372 f184
00000260: 1c8d f304 c412 f504 d47e cebc 176c f304
00000270: d69d 373d 8480 acbb 700e f584 d43d 55bc
00000280: fac7 803c 9062 a23c 1554 87ba fb81 4b3c
00000290: f954 9abb 95e9 fabb 3c66 863c dc3a 9b3b
000002a0: 0793 53bc 0748 9439 c881 bcbb 7210 053c
000002b0: 62ee d13a b7a2 5cbb bf37 ac3c ab2f 4fbc
000002c0: d037 f384 7733 383c 9f66 7d3b 4600 f704
000002d0: b41a d83c 371b 12bb 7093 853a 0751 f0ba
000002e0: b4d8 0105 619a 9a3b 3e2c d73b 40d3 3a3d
000002f0: 7cca 8b3b 67b6 df3c ad26 893c 3b49 da3a
00000300: e113 f0bb f41c 993b 4f40 bd3b a02b d0bb
00000310: 0506 863a 3f56 0f3d 1b0d 23bc 112f 303c
00000320: 284a f584 95ea 8a3b 6ddf 9cb9 71e0 233d
00000330: 7ce4 c63c 3a33 dbbb 09fb 52bb baf4 0cbc
00000340: fef7 b03d a667 1a3d 4ca7 403d 63fd 7fbb
00000350: a996 5b3d 7ba0 86bc 6d35 0b3c 5846 07bc
00000360: 410d e737 7b4e 5bbc cd6f 123b 84da ebbc
00000370: 69e6 db3a 9f7c bd3d 7d7f f484 0d15 183b
00000380: 09b3 d0bb 09b8 c9bb f61d f404 8d40 25ba
00000390: fa6d b9ba b55a d904 c3b2 623c bcf8 14bd
000003a0: 2b26 e8bc d094 62bc 681e f384 218d 553d
000003b0: a0ac 8e3d c8ce 1f3c 01d6 e2bb f063 0f3b
000003c0: 284f 093d 3dfd 16bb 0d00 b33d b23e 413d
000003d0: d542 24ba 126e c93c 8793 f184 048b 02bc
000003e0: d3e1 333b 3d98 91bc a5db 0dbd 17c7 f284
000003f0: 37ef f384 bd9e f584 f482 adbc 3506 f284

block2.bias f4 [100]
5.703274e-36 0.008914283 0.0028106146 0.15339279 -5.6393843e-36 0.039927524 -5.6735582e-36 0.018426426
-0.007144898 5.658503e-36 -0.06238763 0.0453139 -5.7559594e-36 5.7062265e-36 -5.7651013e-36 0.11516297
0.06059835 -5.6598195e-36 0.026091542 -5.6752396e-36 -0.060258135 -5.640892e-36 -0.09492415 -5.6537616e-36
-5.6905302e-36 -5.7754386e-36 -5.7344455e-36 -5.6578558e-36 -5.7444254e-36 -5.7644004e-36 -5.7802047e-36 -0.0010657007
-0.22984968 0.14115323 0.06299401 0.24257717 -0.0216681 0.124671355 -0.15989833 0.025057325
-5.7100897e-36 -5.618068e-36 0.102607325 -0.049528573 0.033529222 -5.6181043e-36 -0.11820454 -5.7875404e-36
-0.19477832 -0.021875842 -5.7750712e-36 0.022386331 5.731058e-36 5.78049e-36 0.051945295 -5.6738154e-36
-0.033331353 0.0062339394 -5.6775523e-36 -5.7447056e-36 -0.014046115 -5.7162847e-36 0.18257743 -0.14837405
0.18286087 -5.6969153e-36 0.02987983 -5.720189e-36 0.110541195 -5.7193515e-36 0.041157603 -5.732235e-36
0.21051142 5.7212287e-36 -5.665506e-36 -5.724377e-36 -0.02351446 0.09859745 -0.1067894 -5.7314752e-36
-5.6434907e-36 0.053570602 -0.07445127 0.011953572 -5.7498258e-36 0.03309694 -5.6614614e-36 0.08016779
0.055300098 0.116023004 -5.6697822e-36 -5.7161157e-36 -5.7746246e-36 -0.13791904 -5.7055145e-36 -5.7438127e-36
5.6662533e-36 0.11611083 -0.0013157236 -5.7135515e-36
00000000: 2897 f204 360d 123c 4a32 383b 0013 1d3e
00000010: 75df ef84 0b8b 233d 9453 f184 04f3 963c
00000020: c01f eabb a4af f004 2c8a 7fbd 119b 393d
00000030: d9d4 f484 4eb7 f204 6538 f584 90da eb3d
00000040: fa35 783d fabd f084 eebd d53c e365 f184
00000050: 3cd1 76bd e0ef ef84 9867 c2bd 037c f084
00000060: 630c f284 f5a8 f584 95ea f384 98a8 f084
00000070: 4157 f484 c330 f584 dbdc f584 fbae 8bba
00000080: b75d 6bbe 798a 103e 0103 813d 2666 783e
00000090: 4d81 b1bc b253 ff3d 63bc 23be 0545 cd3c
000000a0: 5fe1 f284 58f7 ee84 ca23 d23d 79de 4abd
000000b0: f055 093d bdf7 ee84 3915 f2bd bc2c f684
000000c0: f873 47be f734 b3bc f5a4 f584 8a63 b73c
000000d0: b2c5 f304 f6df f504 97c4 543d 6156 f184
000000e0: 7586 08bd 1346 cc3b 127f f184 4e5a f484
000000f0: ad21 66bc d424 f384 94f5 3a3e 5eef 17be
00000100: e13f 3b3e ea51 f284 8cc6 f43c 584f f384
00000110: 6c63 e23d 3946 f384 e094 283d 83d2 f384
00000120: 4e90 573e aa5a f304 e6fb f084 f27c f384
00000130: 66a1 c0bc 76ed c93d 67b4 dabd 3dca f384
00000140: 2c0c f084 d96c 5b3d e879 98bd ead8 433c
00000150: 0f92 f484 a890 073d dbcf f084 032f a43d
00000160: 5b82 623d 789d ed3d 762a f184 fd22 f384
00000170: 18a0 f584 a63a 0dbe 8daf f284 9550 f484
00000180: 0904 f104 84cb ed3d 5c74 acba 1107 f384

block3.weight f4 [100, 100]
-5.6826424e-36 0.0040923804 0.0007474991 -0.03466785 -5.69835e-36 0.015089657 5.7256845e-36 0.0011173893
0.00068146415 5.654521e-36 0.0026643923 -0.046701122 5.6688846e-36 5.6609943e-36 5.7513834e-36 0.012790357
0.00031835225 5.6568865e-36 -0.0038128516 -5.7393784e-36 0.034798563 -5.6970017e-36 0.07914329 -5.7245692e-36
5.6505886e-36 5.7120423e-36 -5.7499933e-36 -5.6535044e-36 5.637545e-36 5.7589035e-36 5.7568268e-36 0.02192525
0.0261921 -0.079843596 -0.02598498 -0.05464406 -0.010755648 0.0008949538 0.008253403 -0.0024018
5.7177078e-36 5.7668717e-36 -0.00053667073 -0.06260045 0.02025931 5.6840418e-36 -0.022338187 -5.682882e-36
-0.052254748 0.061669797 -5.6558135e-36 -0.009935665 -5.6587218e-36 5.677522e-36 -5.7369606e-36 5.753143e-36
0.013603671 0.0067147845 5.6600512e-36 5.741591e-36 0.002316215 -5.6972177e-36 -0.0008644855 -0.028517962
-5.7353463e-36 -5.7547275e-36 -0.005161287 -5.728754e-36 0.0028136924 -5.651046e-36 9.081524e-05 -5.7260422e-36
-0.030068021 -5.7566726e-36 -5.640961e-36 -5.7014048e-36 0.0039338535 -0.0041959262 0.06742476 -5.7787855e-36
5.7524072e-36 0.019437777 0.026255736 -0.002174462 -5.7110303e-36 0.013892886 -5.7154395e-36 0.0005472368
0.00027857645 0.008783821 5.7491654e-36 5.7150808e-36 -5.6990386e-36 0.0056587337 -5.7464143e-36 -5.6630025e-36
5.7553108e-36 0.0005979018 -0.003456397 5.6525207e-36 5.688653e-36 -0.022681061 -0.042885877 0.098817326
5.6838797e-36 0.00506989 -5.7407484e-36 -0.04621176 0.066843025 5.7172543e-36 -0.0030533753 0.09747284
5.7369573e-36 5.696125e-36 5.759495e-36 0.112954125 0.10732672 5.7745263e-36 -0.012880146 -5.671245e-36
0.0825375 5.6306954e-36 -0.03967699 -5.7249495e-36 5.72816e-36 5.710151e-36 5.6692914e-36 5.6413322e-36
-5.718951e-36 5.771344e-36 -5.6799702e-36 0.032288883 -0.034587987 0.14061539 0.08694175 0.067763075
0.0030059055 0.06550574 -0.0038849488 -0.029200371 -5.67507e-36 5.646481e-36 -0.006481665 0.12054541
-0.019319989 -5.6974943e-36 0.123090014 5.7254026e-36 -0.035954945 0.030398706 -5.681172e-36 0.083392836
5.657963e-36 -5.6521982e-36 0.024151227 -5.6953333e-36 -0.0133276945 0.11172863 5.7424843e-36 5.7411032e-36
-0.032200642 -5.724285e-36 0.0738608 -0.004178113 0.094490014 -5.7213493e-36 -0.010622054 5.681544e-36
-0.039227802 5.7235766e-36 0.042105284 5.6265284e-36 -0.0042762565 -5.77851e-36 5.7391022e-36 5.727803e-36
0.02910177 0.09473812 0.05807279 5.7270097e-36 5.6344413e-36 -0.051175535 0.07313353 -0.059326265
5.649953e-36 -0.013037074 -5.773745e-36 0.074510224 0.0048939125 0.025691008 5.7158e-36 5.709753e-36
5.70203e-36 0.092826635 -5.7140548e-36 5.6571745e-36 -5.7091247e-36 0.07967358 -0.02382832 5.639964e-36
-5.6907515e-36 -0.02284059 -0.0097779315 0.050681427 -5.617535e-36 -0.0149321705 -5.7330346e-36 -0.0059219426
0.010297685 -5.6352933e-36 -0.04002932 0.0789177 -5.713493e-36 5.6970387e-36 -5.7317044e-36 0.011733417
0.02352086 5.735223e-36 -0.036431983 -5.66023e-36 -0.00036170587 5.6775566e-36 0.014762676 -5.7539925e-36
-5.6785604e-36 -5.703458e-36 -5.6164505e-36 5.6312324e-36 -5.6498464e-36 -5.6730965e-36 -5.7186466e-36 -0.051813114
-0.029205512 0.030027939 -0.046025492 0.034217674 -0.043040343 0.026361872 0.026000433 -0.01566631
-5.6764492e-36 5.651245e-36 -0.07738079 0.06910388 -0.013581179 -5.6638118e-36 -0.028292617 -5.6789048e-36
-0.06513994 -0.089149825 5.695066e-36 0.08637636 -5.7631753e-36 5.713828e-36 0.06101984 5.678357e-36
00000000: 7fb6 f184 6019 863b d1f3 433a e0ff 0dbd
00000010: 8961 f284 9c3a 773c 2f8b f304 5d75 923a
00000020: 49a4 323a 4884 f004 169d 2e3b ad49 3fbd
00000030: b020 f104 c5ca f004 05a3 f404 a58e 513c
00000040: 84e8 a639 0a9e f004 09e1 79bb 4c20 f484
00000050: f088 0e3d db52 f284 e115 a23d 0a7f f384
00000060: 7659 f004 a2f6 f204 e293 f484 3679 f084
00000070: 6ecb ef04 e8f4 f404 4bde f404 959c b33c
00000080: d190 d63c 0a85 a3bd 74de d4bc 73d2 5fbd
00000090: 7538 30bc 559b 6a3a 4839 073c 8467 1dbb
000000a0: 5334 f304 ac4b f504 5daf 0cba aa34 80bd
000000b0: daf6 a53c bcc5 f104 93fe b6bc 1bb9 f184
000000c0: 1309 56bd 7899 7c3d 5b92 f084 33c9 22bc
000000d0: 06b2 f084 bd7e f104 f805 f484 2eb6 f404
000000e0: efe1 5e3c b207 dc3b 80c0 f004 6438 f404
000000f0: a4cb 173b 3555 f284 a49e 62ba 809e e9bc
00000100: 64f4 f384 6fc7 f484 0320 a9bb 9bac f384
00000110: ed65 383b 715e f084 1074 be38 148f f384
00000120: 3651 f6bc 9ddc f484 a0f0 ef84 cd82 f284
00000130: 8ee7 803b fb7d 89bb fe15 8a3d 67cd f584
00000140: 2bae f404 f93b 9f3c 4516 d73c 6b81 0ebb
00000150: 9deb f284 fd9e 633c a01b f384 7174 0f3a
00000160: e60d 9239 04ea 0f3c de8a f404 b817 f304
00000170: 0969 f284 e66c b93b e96c f484 a3e0 f084
00000180: c9cd f404 83bc 1c3a b884 62bb 806e f004
00000190: f2f7 f104 a2cd b9bc 1aa9 2fbd bd60 ca3d
000001a0: f8c3 f104 5221 a63b 372f f484 8b48 3dbd
000001b0: ffe4 883d 632f f304 231b 48bb d79f c73d
000001c0: ef05 f404 4f49 f204 59fb f404 7e54 e73d
000001d0: 1dce db3d 069f f504 3f07 53bc 643a f184
000001e0: 6c09 a93d d880 ef04 5784 22bd 2e83 f384
000001f0: 24a6 f304 0ae2 f204 1e25 f104 abf4 ef04
00000200: dd41 f384 5f7c f504 6699 f184 5941 043d
00000210: 22ac 0dbd 7bfd 0f3e 840e b23d 5ec7 8a3d
00000220: bafe 443b e027 863d a09a 7ebb 9e35 efbc
00000230: 0a64 f184 bc2c f004 2664 d4bb 83e0 f63d
00000240: f444 9ebc 3858 f284 9e16 fc3d 1d88 f304
00000250: 7e45 13bd b506 f93c 7ca6 f184 ddc9 aa3d
00000260: c3a9 f004 fd6a f084 cbd8 c53c b040 f284
00000270: 675c 5abc fbd1 e43d 1e42 f404 1433 f404
00000280: d2e4 03bd f27b f384 5544 973d 8de8 88bb
00000290: fb83 c13d fa5b f384 2008 2ebc 89aa f104
000002a0: 55ad 20bd 3b74 f304 9776 2c3d 7853 ef04
000002b0: d71f 8cbb 67ca f584 4a1d f404 40a2 f304
000002c0: d666 ee3c 0f06 c23d bcdd 6d3d 9d99 f304
000002d0: a2a9 ef04 709d 51bd 08c7 953d 1900 73bd
000002e0: 8a52 f004 7499 55bc 8496 f584 d198 983d
000002f0: 1d5d a03b f375 d23c 8d1f f304 b4dd f204
00000300: 9c89 f204 e41b be3d 8c0c f384 2da1 f004
00000310: ddd6 f284 e72b a33d 9c33 c3bc c5e5 ef04
00000320: cc0e f284 301c bbbc 9e33 20bc 5497 4f3d
00000330: 8af1 ee84 10a6 74bc 38db f384 db0c c2bb
00000340: 9fb7 283c e9b2 ef84 c9f5 23bd 9a9f a13d
00000350: 6e06 f384 4253 f204 bccc f384 853d 403c
00000360: d2ae c03c 0cf3 f304 b439 15bd 72c2 f084
00000370: 57a3 bdb9 1e7f f104 27df 713c 6ebf f484
00000380: 0c8a f184 2899 f284 bbe5 ee84 b186 ef04
00000390: 6151 f084 8d4e f184 8c3e f384 fd39 54bd
000003a0: 6640 efbc 27fd f53c 3a85 3cbd d527 0c3d
000003b0: 124b 30bd daf4 d73c dcfe d43c a256 80bc
000003c0: 0f73 f184 9c60 f004 d279 9ebd 5686 8d3d
000003d0: 9883 5ebc 73e9 f084 ebc5 e7bc cc8d f184
000003e0: 1768 85bd 2f94 b6bd c73d f204 17e6 b03d
000003f0: 6c23 f584 140a f304 f1ef 793d d587 f104

block3.bias f4 [100]
0.0815373 0.16293442 0.11251657 0.15616491 5.7304916e-36 -5.6723568e-36 -5.7568283e-36 -5.7332043e-36
5.7353592e-36 -5.625666e-36 0.20760679 0.20908129 -5.760126e-36 0.010504419 -0.23186682 -5.683902e-36
0.0006664546 -5.7033047e-36 -0.19368471 -5.6282955e-36 -0.10630189 -0.13637334 0.09990836 -0.21926232
-5.6803253e-36 -0.106537245 -0.04452246 0.22252187 5.7476203e-36 -5.7678546e-36 0.0057178843 -5.6281832e-36
-0.23188466 -5.7318745e-36 0.10384988 0.048952885 0.022681985 0.060793433 5.7866403e-36 0.008307632
5.71722e-36 0.0055346154 5.755712e-36 -5.696509e-36 5.724025e-36 -5.6133988e-36 0.016789325 0.09350366
5.658522e-36 0.19284306 -5.7545826e-36 -5.607658e-36 -5.658512e-36 -0.09900213 -5.612954e-36 -5.6921007e-36
-5.6061197e-36 -5.672198e-36 -5.7561237e-36 -5.701102e-36 0.061956238 0.012908155 5.6884287e-36 5.7505203e-36
0.10989368 -5.710465e-36 -5.7119182e-36 -0.0029970624 -0.22012407 0.22887594 -5.7775673e-36 -5.682973e-36
-5.74294e-36 -5.6473618e-36 5.643979e-36 0.14246117 -5.7162337e-36 0.04603714 0.063700534 -5.671773e-36
-0.23711929 -5.6710317e-36 0.011626993 -0.10139249 -0.20228337 0.24115443 -5.6920875e-36 5.6850746e-36
-5.6232212e-36 -0.08332927 -5.640673e-36 -0.13790536 0.16491671 0.2072539 -5.7646698e-36 0.017287785
0.042357627 -5.6932576e-36 5.6695465e-36 0.0047679218
00000000: 07fd a63d 48d8 263e 166f e63d b2e9 1f3e
00000010: 87bf f304 7f46 f184 4fde f484 11dd f384
00000020: 88f4 f304 144a ef84 e096 543e 6819 563e
00000030: 3802 f584 ba1a 2c3c 7f6e 6dbe 36c4 f184
00000040: 03b5 2e3a 7d97 f284 4955 46be b666 ef84
00000050: ceb4 d9bd 74a5 0bbe c19c cc3d 4d86 60be
00000060: 449d f184 3330 dabd 2f5d 36bd c6dc 633e
00000070: 0b7a f404 6056 f584 175d bb3b 7d65 ef84
00000080: 2c73 6dbe 96ce f384 3faf d43d d282 483d
00000090: 92cf b93c 8902 793d ef22 f604 bc1c 083c
000000a0: 032f f304 b85b b53b 27d2 f404 7d4d f284
000000b0: 1d79 f304 80c4 ee84 c489 893c d97e bf3d
000000c0: d9af f004 a778 453e dbc5 f484 fd85 ee84
000000d0: bdaf f084 a1c1 cabd a8bf ee84 7d1d f284
000000e0: 3d75 ee84 c444 f184 a3d6 f484 817f f284
000000f0: d3c5 7d3d ba7c 533c 81f5 f104 9f99 f404
00000100: f00f e13d 75e5 f284 48f5 f284 5d6a 44bb
00000110: 3468 61be 745e 6a3e 23c0 f584 19ba f184
00000120: 1447 f484 5336 f084 7d11 f004 57e1 113e
00000130: 4624 f384 7191 3c3d 6d75 823d 2440 f184
00000140: 66cf 72be 1138 f184 257f 3e3c dea6 cfbd
00000150: 5f23 4fbe 30f1 763e 581d f284 fbd0 f104
00000160: 752f ef84 89a8 aabd 7ded ef84 1037 0dbe
00000170: eddf 283e 5e3a 543e b233 f584 1d9f 8d3c
00000180: 317f 2d3d 162a f284 e527 f104 3a3c 9c3b

predict.weight f4 [1, 100]
0.0029200965 0.112425625 0.050789427 0.017265793 5.7480583e-36 5.7684376e-36 -5.7067506e-36 -5.671968e-36
5.7345714e-36 5.714712e-36 0.018586881 0.016335886 5.6893162e-36 0.008599766 -0.015667543 5.675465e-36
-3.4461624e-05 5.6055687e-36 -0.04231607 -5.7034725e-36 -0.045706294 -0.025026685 0.028200537 -0.0045819115
5.740926e-36 -0.092717305 -0.009652231 0.027969293 -5.7452882e-36 5.6567868e-36 -0.046484374 5.7050614e-36
-0.03452408 5.6601205e-36 0.01070193 -0.043028433 0.10765599 0.02240385 -5.7193766e-36 0.00867092
-5.6443506e-36 -0.033239078 5.7428775e-36 -5.62327e-36 -5.6372405e-36 -5.7052142e-36 -0.03924758 0.07681151
5.6833903e-36 0.0871115 -5.6752812e-36 5.746679e-36 5.622674e-36 -0.03767404 -5.660026e-36 -5.6709287e-36
-5.7396783e-36 -5.717387e-36 -5.7254367e-36 5.7043077e-36 0.012461816 0.01343472 5.652661e-36 -5.7243845e-36
0.07157176 5.7028527e-36 -5.7099584e-36 -0.08303337 -0.012091096 0.01808973 -5.664172e-36 5.7432014e-36
5.6992388e-36 5.705278e-36 5.7272852e-36 0.039341606 5.7111422e-36 0.08886883 0.0014097253 -5.674389e-36
-0.012822954 -5.6677955e-36 0.007771365 -0.035404917 -0.07197674 0.056728628 5.6996657e-36 5.6944816e-36
5.704042e-36 -0.007149196 -5.6149934e-36 -0.09402999 0.002133952 0.04360808 -5.7283858e-36 -0.05068831
-0.024574 -5.6164186e-36 5.708037e-36 0.006197646
00000000: 175f 3f3b 683f e63d 9308 503d fe70 8d3c
00000010: d07e f404 b95c f504 03bd f284 4342 f184
00000020: f4eb f304 b413 f304 8443 983c d6d2 853c
00000030: 2bff f104 08e6 0c3c 3859 80bc 5768 f104
00000040: e38a 10b8 3d6f ee04 9e53 2dbd 5199 f284
00000050: 8636 3bbd c304 cdbc d004 e73c dc23 96bb
00000060: 2631 f404 92e2 bdbd 6424 1ebc dc1f e53c
00000070: a660 f484 f49c f004 6666 3ebd 9eaa f204
00000080: 1f69 0dbd 41c1 f004 2657 2f3c 953e 30bd
00000090: be7a dc3d 4788 b73c 7f46 f384 7910 0e3c
000000a0: 8915 f084 b325 08bd 6646 f404 fd2f ef84
000000b0: 1dc8 ef84 48ac f284 12c2 20bd 5a4f 9d3d
000000c0: a4be f104 8467 b23d 5766 f184 cb6f f404
000000d0: 8029 ef04 1850 1abd 3ac0 f084 f236 f184
000000e0: 9023 f484 d530 f384 7c88 f384 69a2 f204
000000f0: a52c 4c3c 4d1d 5c3c 0770 f004 077d f384
00000100: 3794 923d 9192 f204 f1df f284 660d aabd
00000110: bb19 46bc ea30 943c 5fed f084 ed49 f404
00000120: 376b f204 faac f204 9d9c f304 aa24 213d
00000130: d5ec f204 dc00 b63d 88c6 b83a a05c f184
00000140: 5e17 52bc d414 f184 efa6 fe3b bf04 11bd
00000150: 8b68 93bd 475c 683d dd6f f204 6a37 f204
00000160: 849f f204 ce43 eabb ddd5 ee84 cc92 c0bd
00000170: c6d9 0b3b 639e 323d 99a8 f384 8c9e 4fbd
00000180: 6a4f c9bc 62e5 ee84 05cb f204 9f15 cb3b

exp_avg f4 [100, 6]
-5.6576e-41 -5.687e-41 5.7179e-41 -5.7599e-41 -5.6534e-41 5.7179e-41 -24.32666 -0.0014972078
-6.495917e-05 -0.0024647203 -0.012169395 -0.0040075066 -16.579636 -0.0011625316 -4.4679167e-05 -0.0016843148
-0.008890516 -0.0028788983 -29.958788 -0.0019243453 -8.255275e-05 -0.0030306727 -0.015316045 -0.0050265123
-33.25373 -0.0020327494 -8.9513574e-05 -0.0033557704 -0.016593538 -0.0054762536 -2.057608e-07 1.5342966e-06
-5.909608e-07 2.0696352e-06 3.9237293e-07 -4.3685696e-07 -26.8529 -0.0014779005 -6.46556e-05 -0.0027030886
-0.012734873 -0.0042502536 -3.6787076 -0.00034561098 -1.5304067e-05 -0.00038038628 -0.0023234056 -0.0007283271
-140.10606 -0.009022677 -0.00048226002 -0.014201926 -0.070777915 -0.023469418 -106.91602 -0.006534021
-0.00028847536 -0.010760112 -0.053368513 -0.017600602 -9.276754 -0.0005840147 -1.9930478e-05 -0.00092384237
-0.00467588 -0.0015374155 -11.38391 -0.00066249305 -2.3451386e-05 -0.0011284843 -0.005499316 -0.0018312084
-0.0030072285 -2.9494226e-05 7.474597e-06 9.474647e-06 -0.00014839765 -4.253247e-05 10.08068 0.0007941254
2.8909693e-05 0.0010162086 0.005719747 0.0018365884 10.692797 0.00059907284 2.5689435e-05 0.0010899354
0.0051057814 0.0017008794 19.140556 0.001225913 5.6027027e-05 0.0019467752 0.009764269 0.0032034616
-11.737123 -0.00069041 -2.9287781e-05 -0.0011816281 -0.0057354784 -0.0018962891 15.497844 0.00096780976
4.1575564e-05 0.0015727594 0.0077919974 0.0025629601 138.34718 0.013027371 0.0045820517 0.015340751
0.06851336 0.012957536 14.646298 0.0009241771 3.894567e-05 0.0014982128 0.0074219746 0.0024315307
22.297735 0.0012709756 5.707021e-05 0.002268605 0.010738371 0.0035678365 -16.712767 -0.0011617626
-4.7611276e-05 -0.0016823444 -0.008916451 -0.002895108 -5.6856e-41 -5.6548e-41 5.694e-41 5.7207e-41
-5.7263e-41 -5.6576e-41 0.009902147 -5.5929228e-05 1.0181692e-05 6.3157924e-05 -0.00011726579 -3.5062407e-05
5.9566603 0.00037446225 1.747021e-05 0.00060883205 0.0029969017 0.0009794777 -25.663153 -0.001474675
-6.7289395e-05 -0.0025930381 -0.012411231 -0.0041233413 -5.715e-41 -5.7052e-41 -5.7445e-41 -5.666e-41
-5.6898e-41 -5.7641e-41 -16.674889 -0.0010355462 -4.5259876e-05 -0.0016781465 -0.008380741 -0.0027612883
-5.97099e-07 6.4874115e-07 2.4347433e-08 4.7424257e-07 1.6315738e-06 3.2878864e-07 -5.6436e-41 -5.7038e-41
5.7431e-41 -5.6352e-41 -5.6758e-41 -5.7137e-41 21.769176 0.0013254379 5.9570943e-05 0.0022115444
0.010841018 0.0035709655 -0.81063294 -5.1600764e-05 -9.092277e-06 -0.000101214166 -0.0004521743 -0.00014070344
-3.0372496 -0.00036305646 -1.5509784e-05 -0.0003267994 -0.0022170844 -0.0006764842 34.74658 0.0022378517
9.750531e-05 0.0034999966 0.017787104 0.0058340835 -5.7557e-41 5.6576e-41 5.7361e-41 -5.6898e-41
-5.7235e-41 -5.7431e-41 -50.90035 -0.003147563 -0.00013543852 -0.0051267482 -0.025568686 -0.008420605
-0.54448014 -0.00046614488 0.00015674195 -8.5575295e-05 -0.0022370112 -0.00046290166 151.92142 0.014295035
0.00075585203 0.008664196 0.08947131 0.013280851 3.4206057 0.0002225964 1.5099777e-05 0.00036026075
0.0017445739 0.0005730983 -26.713745 -0.0014761839 -6.79348e-05 -0.0027044467 -0.012684448 -0.004236081
11.031811 0.0007768418 2.8068229e-05 0.0011075728 0.005902955 0.0019135998 196.24039 0.020176342
0.00041759136 0.021062877 0.113902554 0.01960732 -14.73412 -0.0009988869 -4.1425228e-05 -0.0014804753
00000000: b69d 0080 889e 0080 649f 0000 90a0 0080
00000010: 989d 0080 649f 0000 009d c2c1 f53d c4ba
00000020: b03a 88b8 2587 21bb 2462 47bc 6751 83bb
00000030: 18a3 84c1 1660 98ba e465 3bb8 3ac4 dcba
00000040: 87a9 11bc e6ab 3cbb 99ab efc1 503a fcba
00000050: 2c20 adb8 409e 46bb 26f0 7abc 71b5 a4bb
00000060: d203 05c2 e037 05bb 3cb9 bbb8 7cec 5bbb
00000070: 2cef 87bc 2572 b3bb 19ef 5cb4 08ee cd35
00000080: 84a2 1eb5 10e4 0a36 53a7 d234 2a89 eab4
00000090: bdd2 d6c1 1db6 c1ba b697 87b8 4d26 31bb
000000a0: eea5 50bc b645 8bbb f26f 6bc0 1f33 b5b9
000000b0: 3c61 80b7 956e c7b9 4744 18bb 34ed 3eba
000000c0: 271b 0cc3 dad3 13bc d8d7 fcb9 32af 68bc
000000d0: 03f4 90bd f042 c0bc 01d5 d5c2 571b d6bb
000000e0: 823e 97b9 2e4b 30bc f198 5abd 232f 90bc
000000f0: 966d 14c1 9018 19ba 6030 a7b7 032e 72ba
00000100: 2038 99bb 1b83 c9ba 7f24 36c1 28ab 2dba
00000110: 78b9 c4b7 a6e9 93ba 9b33 b4bb 2805 f0ba
00000120: ec14 45bb 5e6a f7b7 4dce fa36 4df5 1e37
00000130: 319b 1bb9 e464 32b8 774a 2141 da2c 503a
00000140: 1883 f237 4d32 853a b76c bb3b aeb9 f03a
00000150: b215 2b41 190b 1d3a a47f d737 2adc 8e3a
00000160: 664e a73b 0bf0 de3a dc1f 9941 d0ae a03a
00000170: 90fe 6a38 f02a ff3a 50fa 1f3c 2bf1 513b
00000180: 41cb 3bc1 a1fc 34ba 08af f5b7 dce0 9aba
00000190: aef0 bbbb e78c f8ba 2bf7 7741 9db4 7d3a
000001a0: 6c61 2e38 0c25 ce3a 0354 ff3b 56f7 273b
000001b0: e158 0a43 c170 553c 0925 963b c657 7b3c
000001c0: bc50 8c3d d84b 543c 3d57 6a41 7a44 723a
000001d0: 9859 2338 ae5f c43a 0934 f33b 515a 1f3b
000001e0: c361 b241 dd96 a63a ac5e 6f38 e0ac 143b
000001f0: feef 2f3c 5dd2 693b bfb3 85c1 4946 98ba
00000200: 38b2 47b8 1c82 dcba 4e16 12bc dabb 3dbb
00000210: 7e9e 0080 a29d 0080 ba9e 0000 789f 0000
00000220: a09f 0080 b69d 0080 9d3c 223c 8d95 6ab8
00000230: 09d2 2a37 a773 8438 97ec f5b8 f90f 13b8
00000240: f69c be40 7953 c439 fe8c 9237 079a 1f3a
00000250: ab67 443b d161 803a 234e cdc1 e249 c1ba
00000260: b81d 8db8 f6ef 29bb 7a58 4bbc 181d 87bb
00000270: 509f 0080 0a9f 0080 22a0 0080 f29d 0080
00000280: 9c9e 0080 aea0 0080 2c66 85c1 2abb 87ba
00000290: 6cd5 3db8 41f5 dbba 604f 09bc bbf6 34bb
000002a0: 5548 20b5 2725 2e35 9224 d132 679b fe34
000002b0: 73fc da35 5e84 b034 529d 0080 009f 0080
000002c0: 18a0 0000 169d 0080 389e 0080 469f 0080
000002d0: 4627 ae41 51ba ad3a d0db 7938 8fef 103b
000002e0: 869e 313c dc06 6a3b a485 4fbf e66d 58b8
000002f0: 088b 18b7 f142 d4b8 cf11 edb9 cb89 13b9
00000300: 4c62 42c0 9d58 beb9 021b 82b7 4656 abb9
00000310: 814c 11bb 1656 31ba 7ffc 0a42 eca8 123b
00000320: c47b cc38 3360 653b 43b6 913c d72b bf3b
00000330: 72a0 0080 b69d 0000 e69f 0000 9c9e 0080
00000340: 8c9f 0080 18a0 0080 f599 4bc2 5847 4ebb
00000350: 8004 0eb9 48fe a7bb 6c75 d1bc 94f6 09bc
00000360: 0d63 0bbf e864 f4b9 195b 2439 e376 b3b8
00000370: d29a 12bb 9cb1 f2b9 e2eb 1743 b935 6a3c
00000380: 5f24 463a 46f4 0d3c bc3c b73d ed97 593c
00000390: 34eb 5a40 c468 6939 0c55 7d37 61e1 bc39
000003a0: 30aa e43a fa3b 163a c0b5 d5c1 837c c1ba
000003b0: 3878 8eb8 163d 31bb 6ed2 4fbc d3ce 8abb
000003c0: 4c82 3041 f9a4 4b3a 1074 eb37 fa2b 913a
000003d0: 936d c13b c1d1 fa3a 8a3d 4443 db48 a53c
000003e0: 2af0 da39 0e8c ac3c be45 e93d 889f a03c
000003f0: f5be 6bc1 15ed 82ba 00c0 2db8 820c c2ba

exp_avg_sq f4 [100, 6]
7e-43 7e-43 7e-43 7e-43 7e-43 7e-43 4985.127 9.673371e-05
7.643293e-06 8.9923946e-05 0.00039312415 5.61579e-05 2317.7742 4.9359387e-05 3.9465544e-06 4.333344e-05
0.00018738251 2.6821353e-05 7622.0596 0.00015935705 1.38538535e-05 0.00014016926 0.00060806866 8.754653e-05
9333.895 0.00019481832 2.0468928e-05 0.00017217957 0.0007459532 0.000109196706 5.2321833e-05 1.2726179e-07
4.7445194e-09 1.3336339e-07 3.657435e-07 5.389839e-08 6035.9824 0.00011009249 9.376633e-06 0.000109208624
0.00048202093 6.832015e-05 119.284225 3.752431e-06 4.7494026e-07 2.500436e-06 1.067111e-05 1.7746539e-06
157282.38 0.0016415967 0.00022451332 0.002943864 0.012651366 0.0017711606 92517.68 0.0008267856
0.00011785347 0.001606645 0.0071944916 0.0010263355 744.83026 1.5335901e-05 1.5940839e-06 1.4199726e-05
6.18251e-05 8.774562e-06 1079.9589 2.6068836e-05 4.838082e-06 2.1320873e-05 9.010235e-05 1.4849047e-05
0.22837926 5.3636286e-06 2.501256e-06 1.5391978e-06 4.9066866e-06 2.5553927e-06 836.40344 2.2224198e-05
1.5307601e-06 1.6358961e-05 6.928953e-05 1.0047737e-05 951.3311 1.767013e-05 1.4438051e-06 1.6907234e-05
7.4651594e-05 1.0627073e-05 3031.5713 6.039886e-05 5.076392e-06 5.5287022e-05 0.00024163203 3.4424116e-05
1149.7864 1.9746996e-05 1.6766855e-06 2.0414695e-05 8.978867e-05 1.2810556e-05 2000.3475 5.308601e-05
1.1535198e-05 3.947046e-05 0.00016602084 2.9501109e-05 174556.19 0.007718446 0.0005074262 0.004097763
0.015929654 0.002348791 1793.3552 3.4556328e-05 3.3684132e-06 3.1876032e-05 0.00013949368 2.0368423e-05
4181.7476 7.6641285e-05 6.190249e-06 7.3911484e-05 0.00032543682 4.669493e-05 2354.805 6.355015e-05
9.403856e-06 4.6794125e-05 0.00019625787 3.187597e-05 7e-43 7e-43 7e-43 7e-43
7e-43 7e-43 0.6058715 1.1886218e-05 4.3976e-06 3.983604e-06 1.404354e-05 4.6967957e-06
282.9754 5.5441683e-06 6.2423834e-07 5.133084e-06 2.2233171e-05 3.3015192e-06 5578.2188 0.00010106994
8.412285e-06 9.933486e-05 0.00043765942 6.2238e-05 7e-43 7e-43 7e-43 7e-43
7e-43 7e-43 2329.617 4.887983e-05 4.6059154e-06 4.3098884e-05 0.00018687021 2.7076894e-05
5.4483948e-08 8.377132e-09 5.857362e-11 1.761697e-08 2.6743168e-08 2.7077494e-09 7e-43 7e-43
7e-43 7e-43 7e-43 7e-43 4005.6956 7.457488e-05 6.005275e-06 7.127139e-05
0.00031357008 4.4812914e-05 6.357061 7.1427003e-06 3.6835418e-06 1.7991484e-06 5.741707e-06 3.675109e-06
82.246086 4.860117e-06 5.841583e-07 2.2749714e-06 9.104039e-06 1.640961e-06 10112.679 0.00021124019
1.9857698e-05 0.00018682615 0.0008095752 0.00011734379 7e-43 7e-43 7e-43 7e-43
7e-43 7e-43 21076.314 0.00020732907 3.3017666e-05 0.00038053753 0.0016735374 0.00024436117
2.2814786 2.0329557e-05 7.559193e-06 8.5858455e-06 2.8393451e-05 8.805036e-06 208861.56 0.0090293875
0.0005903411 0.004763959 0.020340392 0.0029798315 103.80132 8.512802e-06 8.36743e-07 3.3675374e-06
1.2671356e-05 2.055999e-06 5997.1987 0.00010786921 9.321445e-06 0.00010634914 0.00047087588 6.739813e-05
1046.9669 2.1542988e-05 1.6985229e-06 1.9163035e-05 8.44209e-05 1.1933321e-05 324559.06 0.0150564
0.0009620951 0.00753729 0.03049605 0.0047140163 1830.36 4.9636925e-05 7.971816e-06 3.637073e-05
00000000: f401 0000 f401 0000 f401 0000 f401 0000
00000010: f401 0000 f401 0000 04c9 9b45 84dd ca38
00000020: b23b 0037 8d95 bc38 3b1c ce39 168b 6b38
00000030: 63dc 1045 3d07 4f38 a56c 8436 edc0 3538
00000040: 1c7c 4439 6bfe e037 7a30 ee45 1519 2739
00000050: d96d 6837 66fa 1239 cc66 1f3a 2f99 b738
00000060: 94d7 1146 2548 4c39 b0b4 ab37 1a8b 3439
00000070: 128c 433a 8900 e538 2474 5b38 74a5 0834
00000080: 3c05 a331 a632 0f34 675b c434 e87d 6733
00000090: dc9f bc45 75e1 e638 5550 1d37 ef06 e538
000000a0: c1b7 fc39 1a47 8f38 8691 ee42 46d2 7b36
000000b0: 4bfb fe34 2acd 2736 1208 3337 a530 ee35
000000c0: 9898 1948 d82a d73a 566b 6b39 d8ed 403b
000000d0: ad47 4f3c 4a26 e83a d7b2 b447 a4bc 583a
000000e0: 1a28 f738 0f96 d23a c5bf eb3b 1b86 863a
000000f0: 2335 3a44 99a5 8037 4ef4 d535 5c3b 6e37
00000100: 19a8 8138 7536 1337 affe 8644 66ae da37
00000110: cf56 a236 3ada b237 55f5 bc38 2c20 7937
00000120: 41dc 693e 38f9 b336 40db 2736 6f96 ce35
00000130: 1ea4 a436 507d 2b36 d219 5144 1a6e ba37
00000140: 8474 cd35 9a3a 8937 884f 9138 b492 2837
00000150: 31d5 6d44 513a 9437 c4c8 c135 02d4 8d37
00000160: 458e 9c38 ee4a 3237 2479 3d45 c854 7d38
00000170: e055 aa36 fde3 6738 9b5e 7d39 9d62 1038
00000180: 2ab9 8f44 5aa6 a537 7a0a e135 3940 ab37
00000190: ed4c bc38 ebec 5637 1f0b fa44 aba8 5e38
000001a0: 4c87 4137 158d 2538 e115 2e39 2679 f737
000001b0: 0c77 2a48 05eb fc3b cc04 053a 8746 863b
000001c0: e87e 823c 2dee 193b 5e2b e044 93f0 1038
000001d0: e60c 6236 a1b2 0538 0d45 1239 dbdc aa37
000001e0: fbad 8245 7aba a038 d6b5 cf36 ed00 9b38
000001f0: 649f aa39 4dda 4338 e12c 1345 3a46 8538
00000200: 41c5 1d37 cf44 4438 92ca 4d39 90b2 0538
00000210: f401 0000 f401 0000 f401 0000 f401 0000
00000220: f401 0000 f401 0000 651a 1b3f eb6a 4737
00000230: 198f 9336 e6aa 8536 8c9c 6b37 2b99 9d36
00000240: da7c 8d43 0b08 ba36 5591 2735 db3c ac36
00000250: 5f81 ba37 ab8f 5d36 c051 ae45 83f5 d338
00000260: 7d22 0d37 ff51 d038 a775 e539 c685 8238
00000270: f401 0000 f401 0000 f401 0000 f401 0000
00000280: f401 0000 f401 0000 df99 1145 5104 4d38
00000290: 838c 9a36 13c5 3438 97f2 4339 3023 e337
000002a0: bc01 6a33 04eb 0f32 04ce 802e 2054 9732
000002b0: d9b8 e532 3b13 3a31 f401 0000 f401 0000
000002c0: f401 0000 f401 0000 f401 0000 f401 0000
000002d0: 215b 7a45 1565 9c38 eb80 c936 8977 9538
000002e0: aa66 a439 80f5 3b38 0b6d cb40 54ab ef36
000002f0: c432 7736 457a f135 e3a8 c036 e4a1 7636
00000300: ff7d a442 1614 a336 0dcf 1c35 b6ab 1836
00000310: 8dbd 1837 fe3e dc35 b702 1e46 5b80 5d39
00000320: 1594 a637 c3e6 4339 ac39 543a 7816 f638
00000330: f401 0000 f401 0000 f401 0000 f401 0000
00000340: f401 0000 f401 0000 a1a8 a446 7966 5939
00000350: 737c 0a38 e282 c739 995a db3a 9a1d 8039
00000360: bf03 1240 6489 aa37 f9a4 fd36 ed0b 1037
00000370: 792e ee37 57b9 1337 64f7 4b48 ffef 133c
00000380: 1fc1 1a3a fc1a 9c3b e5a0 a63c 4749 433b
00000390: 479a cf42 35d2 0e37 8b9c 6035 dafd 6136
000003a0: 0f97 5437 cbf9 0936 9769 bb45 d737 e238
000003b0: 4d63 1c37 c307 df38 e4df f639 1858 8d38
000003c0: f1de 8244 37b7 b437 cdf8 e335 4ec0 a037
000003d0: 200b b138 3935 4837 e279 9e48 1eaf 763c
000003e0: 1c35 7c3a 5ffb f63b dad2 f93c 0978 9a3b
000003f0: 85cb e444 3e31 5038 b0be 0537 c68c 1838

exp_avg f4 [100]
5.7641e-41 -0.0014817185 -0.0010860458 -0.001870903 -0.0020210692 6.628733e-07 -0.0015525639 -0.0002868445
-0.008626331 -0.0065079085 -0.00057479605 -0.00067455467 -2.0209076e-05 0.00069948874 0.00061961176 0.0011921517
-0.0006997828 0.0009494211 0.0072279708 0.00090721314 0.0013119939 -0.0010882522 5.7277e-41 -1.510475e-05
0.00036238148 -0.0015094071 -5.6912e-41 -0.001023604 1.6450012e-07 -5.7179e-41 0.001323119 -5.2700194e-05
-0.0002691708 0.0021678945 -5.68e-41 -0.0031145676 -0.00026694726 0.008712758 0.0002082033 -0.0015416556
0.0007237886 0.011915078 -0.0009464018 0.0013427678 4.7571663e-07 -0.0046229647 -5.7599e-41 0.0006408096
-0.001012051 -0.0011078151 -0.00059012073 5.6548e-41 -5.701e-41 5.6828e-41 0.0005694322 -5.6506e-41
-0.00041266638 0.0011523452 -5.6464e-41 0.018007964 -0.001737418 -0.0007202909 0.00095942704 4.452582e-05
0.0006933326 -3.17202e-05 -0.0015767487 0.00032579657 0.012664623 -4.8031703e-05 0.0004926575 0.00039395344
0.000105387124 0.0008337725 -0.0019630599 -0.00017942545 -5.666e-41 0.0008747119 0.0008481403 -5.6282e-41
-0.00065377005 0.01602958 -0.0008211497 0.00016517338 -5.6072e-41 0.0006698306 0.00010851007 -0.00041422795
9.482563e-07 -0.0003254775 -0.0015595166 0.00094780215 0.00010242848 -0.0004112699 0.00015905581 -0.000723202
-0.00011064431 -0.005582774 -8.212233e-05 0.00062057393
00000000: aea0 0000 3936 c2ba a659 8eba 1639 f5ba
00000010: ea73 04bb 4ef0 3135 667f cbba 9e63 96b9
00000020: 7455 0dbc 4b40 d5bb e9ad 16ba 99d4 30ba
00000030: a986 a9b7 e55d 373a 716d 223a f941 9c3a
00000040: a171 37ba 92e2 783a 9dd8 ec3b 0bd2 6d3a
00000050: 36f7 ab3a afa3 8eba aa9f 0000 686a 7db7
00000060: 05fe bd39 4cd7 c5ba a69e 0080 732a 86ba
00000070: 73a1 3034 649f 0080 826c ad3a 670a 5db8
00000080: 7e1f 8db9 3c13 0e3b 569e 0080 c61d 4cbb
00000090: 0ef5 8bb9 f5bf 0e3c 2651 5a39 6111 caba
000000a0: a1bc 3d3a 7637 433c f317 78ba d0ff af3a
000000b0: ff65 ff34 3d7c 97bb 90a0 0080 01fc 273a
000000c0: cca6 84ba 1b34 91ba 55b2 1aba a29d 0000
000000d0: ec9e 0080 6a9e 0000 f345 153a 849d 0080
000000e0: 255b d8b9 4a0a 973a 669d 0080 7085 933c
000000f0: 13ba e3ba e7d1 3cba 0f82 7b3a 3cc1 3a38
00000100: c3c0 353a 4e0b 05b8 e8aa ceba adcf aa39
00000110: 477f 4f3c a675 49b8 af25 013a 898b ce39
00000120: 4803 dd38 8691 5a3a aea6 00bb 2724 3cb9
00000130: f29d 0080 ec4c 653a bb55 5e3a e49c 0080
00000140: c461 2bba 7750 833c 6c42 57ba 6432 2d39
00000150: 4e9c 0080 9297 2f3a e68f e338 bc2c d9b9
00000160: ad8b 7e35 daa4 aab9 b268 ccba ed75 783a
00000170: dfce d638 b69f d7b9 38c8 2639 4495 3dba
00000180: b609 e8b8 b4ef b6bb 1739 acb8 03ae 223a

exp_avg_sq f4 [100]
7e-43 1.0312819e-05 4.8713064e-06 1.5911319e-05 1.9553418e-05 9.041471e-09 1.262987e-05 2.7521912e-07
0.00032866438 0.00019016588 1.6085203e-06 2.3871437e-06 1.3999963e-07 1.7910778e-06 1.9642946e-06 6.313873e-06
2.3645975e-06 4.4357976e-06 0.00037093504 3.6822535e-06 8.578747e-06 5.164281e-06 7e-43 3.2700672e-07
5.8430373e-07 1.1512579e-05 7e-43 4.9003274e-06 6.896125e-10 7e-43 8.238592e-06 1.8411717e-07
2.3077517e-07 2.120274e-05 7e-43 4.413042e-05 6.9005364e-07 0.00046485217 3.04937e-07 1.239839e-05
2.2064971e-06 0.00070728816 4.023369e-06 8.635441e-06 2.5053566e-09 0.000115778246 7e-43 2.4041728e-06
4.1941203e-06 7.2822536e-06 1.3279772e-06 7e-43 7e-43 7e-43 1.5234187e-06 7e-43
1.0789256e-06 6.100058e-06 7e-43 0.000990274 1.7581026e-05 3.2760627e-06 3.736292e-06 5.5799365e-08
2.77432e-06 6.841225e-08 1.2262496e-05 6.795446e-07 0.00052566145 1.08899734e-07 1.6946399e-06 1.0012685e-06
1.9848436e-07 3.6032193e-06 1.8065244e-05 1.7366513e-07 7e-43 4.6063474e-06 3.6522974e-06 7e-43
3.702973e-06 0.00081242615 3.010334e-06 2.1527795e-08 7e-43 2.1169876e-06 1.04077074e-07 1.1877444e-06
9.071993e-09 2.0302803e-06 1.1390711e-05 3.837843e-06 8.6107285e-08 1.0615335e-06 1.6827903e-07 3.0548902e-06
5.1506184e-08 0.0001322639 6.236733e-08 2.0593745e-06
00000000: f401 0000 3805 2d37 3474 a336 4c79 8537
00000010: a506 a437 cf54 1b32 e1e4 5337 d4c1 9334
00000020: 9650 ac39 4467 4739 56e4 d735 d132 2036
00000030: ce52 1634 f764 f035 53d2 0336 c2db d336
00000040: 7aaf 1e36 36d7 9436 0f7a c239 a21c 7736
00000050: 70ed 0f37 d648 ad36 f401 0000 768f af34
00000060: 0cd9 1c35 2626 4137 f401 0000 7e6d a436
00000070: 2a8f 3d30 f401 0000 7c38 0a37 beb1 4534
00000080: ffca 7734 8adc b137 f401 0000 ad18 3938
00000090: 203c 3935 67b7 f339 39b6 a334 ae02 5037
000000a0: 5513 1436 4e69 393a 7a00 8736 f0e0 1037
000000b0: b32a 2c31 f9cd f238 f401 0000 6057 2136
000000c0: 38bb 8c36 155a f436 f33c b235 f401 0000
000000d0: f401 0000 f401 0000 4578 cc35 f401 0000
000000e0: 9acf 9035 19af cc36 f401 0000 15cc 813a
000000f0: f77a 9337 54da 5b36 02bd 7a36 0da8 6f33
00000100: 742e 3a36 08ea 9233 05bb 4d37 f369 3635
00000110: 8bcc 093a 43dc e933 6273 e335 5363 8635
00000120: f71e 5534 d6ce 7136 d18a 9737 b578 3a34
00000130: f401 0000 3990 9a36 fe19 7536 f401 0000
00000140: 9780 7836 fff8 543a 2505 4a36 1fec b832
00000150: f401 0000 9211 0e36 fa80 df33 966a 9f35
00000160: 0cdb 1b32 f33f 0836 bb1a 3f37 d2c6 8036
00000170: fbe9 b833 037a 8e35 30b0 3434 9d02 4d36
00000180: a637 5d33 52b0 0a39 cdee 8533 c933 0a36
